<!DOCTYPE html>
<html lang="en">
<head>
  <meta charset="utf-8" />
  <meta name="viewport" content="width=device-width, initial-scale=1" />
  <title>Daistra | ML Project Lifecycle</title>
  <link rel="preconnect" href="https://fonts.googleapis.com" />
  <link rel="preconnect" href="https://fonts.gstatic.com" crossorigin />
  <link href="https://fonts.googleapis.com/css2?family=DM+Sans:ital,opsz,wght@0,9..40,400;0,9..40,500;0,9..40,600;0,9..40,700;1,9..40,400&family=JetBrains+Mono:wght@500&display=swap" rel="stylesheet" />
  <style>
    :root {
      --ink: #070d18;
      --muted: #475569;
      --line: #0f172a;
      --box-line: #64748b;
      --grid: #d8dee9;
      --white: #ffffff;
      --discover: #fffbeb;
      --discover-head: #fbbf24;
      --plan: #eff6ff;
      --plan-head: #60a5fa;
      --model: #eef2ff;
      --model-head: #818cf8;
      --deploy: #fff7ed;
      --deploy-head: #fb923c;
      --operate: #ecfdf5;
      --operate-head: #34d399;
      --gov: #ede9fe;
      --gov-h: #6d28d9;
      --gap: #fecaca;
      --gap-h: #b91c1c;
      --steward: #bae6fd;
      --steward-h: #0369a1;
      --click-shadow: 0 3px 10px rgba(15, 23, 42, 0.12);
      --lane-shadow: 0 2px 4px rgba(0, 0, 0, 0.06), 0 6px 18px rgba(15, 23, 42, 0.1);
      --space-1: 8px;
      --space-2: 16px;
      --radius-sm: 8px;
      --radius-md: 10px;
      --radius-lg: 12px;
    }
    * { box-sizing: border-box; margin: 0; padding: 0; }
    body {
      font-family: "DM Sans", system-ui, sans-serif;
      background:
        repeating-linear-gradient(0deg, var(--grid) 0, var(--grid) 1px, transparent 1px, transparent 20px),
        repeating-linear-gradient(90deg, var(--grid) 0, var(--grid) 1px, transparent 1px, transparent 20px),
        #e8edf4;
      color: var(--ink);
      line-height: 1.4;
      padding: 8px 4px;
    }
    body.panel-open { overflow: hidden; }
    @media print {
      body { background: white; padding: 0; overflow: visible; }
      .poster { box-shadow: none !important; max-width: none !important; }
      .detail-panel, .detail-backdrop, .seq-overlay, .poster-help-banner, .poster-help-fab { display: none !important; }
      .clickable { cursor: default !important; }
      .phases { flex-direction: row; padding: 0; }
      .pillar { margin-left: 0; flex: 1 1 0; box-shadow: none; transform: none; }
    }
    .poster {
      max-width: min(2560px, 99.5vw);
      margin: 0 auto;
      background: var(--white);
      border: 2.5px solid var(--line);
      border-radius: 14px;
      box-shadow: 0 24px 64px rgba(15, 23, 42, 0.12);
      overflow: hidden;
    }
    .hero {
      display: flex;
      flex-direction: row;
      align-items: flex-start;
      gap: 20px 28px;
      padding: 20px 24px 16px;
      border-bottom: 2.5px solid var(--line);
      background: linear-gradient(135deg, #0f172a 0%, #1e3a5f 100%);
      color: white;
      text-align: left;
    }
    .hero-brand {
      flex-shrink: 0;
      display: flex;
      align-items: center;
      padding-top: 2px;
    }
    .hero-logo {
      display: block;
      margin: 0;
      height: 72px;
      width: auto;
      max-width: 180px;
      object-fit: contain;
      object-position: left center;
    }
    .hero-content {
      flex: 1;
      min-width: 0;
    }
    @media (max-width: 540px) {
      .hero {
        flex-direction: column;
        align-items: center;
        text-align: center;
        gap: 14px;
      }
      .hero-brand { padding-top: 0; }
      .hero-logo { height: 56px; max-width: min(240px, 70vw); }
      .hero .meta,
      .hero-actions { justify-content: center; }
    }
    .hero h1 {
      font-size: clamp(1.85rem, 3.4vw, 2.65rem);
      font-weight: 800;
      letter-spacing: -0.03em;
      line-height: 1.15;
    }
    .hero-brand { font-weight: 800; }
    .hero-sep {
      margin: 0 0.2em;
      font-weight: 500;
      opacity: 0.55;
      letter-spacing: 0.02em;
    }
    .hero-subject { font-weight: 700; }
    .hero .tagline {
      margin-top: 6px;
      font-size: 0.82rem;
      font-weight: 500;
      opacity: 0.72;
      letter-spacing: 0.01em;
    }
    .hero .meta { margin-top: 10px; display: flex; flex-wrap: wrap; justify-content: flex-start; gap: 6px; }
    .hero .pill {
      font-size: 0.62rem; font-weight: 600; padding: 3px 10px; border-radius: 999px;
      border: 1px solid rgba(255,255,255,0.22); background: rgba(255,255,255,0.06);
      text-transform: uppercase; letter-spacing: 0.05em;
      opacity: 0.85;
    }
    .hero-actions {
      margin-top: 14px;
      display: flex;
      flex-wrap: wrap;
      justify-content: flex-start;
      gap: 10px;
    }
    .hero-seq-btn {
      display: inline-flex;
      align-items: center;
      gap: 8px;
      padding: 10px 18px;
      border-radius: 10px;
      border: 2px solid rgba(255, 255, 255, 0.45);
      background: linear-gradient(135deg, rgba(255,255,255,0.18) 0%, rgba(255,255,255,0.08) 100%);
      color: white;
      font-family: inherit;
      font-size: 0.82rem;
      font-weight: 700;
      letter-spacing: 0.03em;
      cursor: pointer;
      transition: background 0.2s, transform 0.15s, box-shadow 0.2s;
      box-shadow: 0 4px 14px rgba(0, 0, 0, 0.2);
    }
    .hero-seq-btn:hover {
      background: linear-gradient(135deg, rgba(255,255,255,0.28) 0%, rgba(255,255,255,0.12) 100%);
      transform: translateY(-1px);
      box-shadow: 0 6px 20px rgba(0, 0, 0, 0.28);
    }
    .hero-seq-btn:focus-visible {
      outline: 2px solid #93c5fd;
      outline-offset: 3px;
    }
    a.hero-link-btn {
      text-decoration: none;
      color: inherit;
    }
    .hero-seq-btn__icon {
      display: inline-flex;
      align-items: center;
      justify-content: center;
      width: 1.5rem;
      height: 1.5rem;
      border-radius: 6px;
      background: rgba(255, 255, 255, 0.2);
      font-size: 0.95rem;
    }
    .hero-help-btn {
      display: inline-flex;
      align-items: center;
      gap: 8px;
      padding: 10px 16px;
      border-radius: 10px;
      border: 1px solid rgba(255, 255, 255, 0.35);
      background: rgba(255, 255, 255, 0.08);
      color: rgba(255, 255, 255, 0.95);
      font-family: inherit;
      font-size: 0.78rem;
      font-weight: 600;
      cursor: pointer;
      transition: background 0.2s;
    }
    .hero-help-btn:hover { background: rgba(255, 255, 255, 0.16); }
    .hero-help-btn:focus-visible { outline: 2px solid #93c5fd; outline-offset: 3px; }

    .poster-help-banner {
      border-bottom: 1px solid #e2e8f0;
      background: #f8fafc;
      color: #1e293b;
    }
    .poster-help-banner[hidden] { display: none !important; }
    .poster-help-banner__inner {
      max-width: none;
      margin: 0 auto;
      padding: 10px 16px;
      display: grid;
      grid-template-columns: auto 1fr auto;
      gap: 10px 14px;
      align-items: start;
    }
    .poster-help-banner__icon {
      display: flex;
      align-items: center;
      justify-content: center;
      width: 2rem;
      height: 2rem;
      border-radius: 10px;
      background: #ffffff;
      border: 1.5px solid #cbd5e1;
      color: #475569;
      font-size: 1rem;
      font-weight: 800;
      line-height: 1;
      flex-shrink: 0;
      margin-top: 1px;
    }
    .poster-help-banner__content {
      min-width: 0;
      display: flex;
      flex-direction: column;
      gap: 6px;
    }
    .poster-help-banner__title {
      font-size: 0.88rem;
      font-weight: 700;
      letter-spacing: -0.02em;
      color: #0f172a;
    }
    .poster-help-banner__model {
      margin: 0;
      padding: 6px 10px;
      border-radius: var(--radius-sm);
      background: #ffffff;
      border: 1px solid #e2e8f0;
      border-left: 3px solid #3b82f6;
      font-size: 0.82rem;
      line-height: 1.45;
      color: #334155;
    }
    .poster-help-banner__model strong { font-weight: 700; color: #1e40af; }
    .poster-help-banner__list {
      list-style: none;
      margin: 0;
      padding: 0;
      display: grid;
      grid-template-columns: repeat(auto-fill, minmax(200px, 1fr));
      gap: 4px 16px;
      font-size: 0.8rem;
      line-height: 1.4;
      color: #475569;
    }
    .poster-help-banner__list li {
      display: flex;
      gap: 6px;
      align-items: baseline;
    }
    .poster-help-banner__list kbd {
      flex-shrink: 0;
      font-family: "JetBrains Mono", monospace;
      font-size: 0.68rem;
      font-weight: 600;
      padding: 1px 5px;
      border-radius: 4px;
      border: 1px solid #cbd5e1;
      background: #f1f5f9;
      color: #334155;
    }
    .poster-help-banner__list strong { color: #0f172a; font-weight: 600; }
    .poster-help-banner__actions {
      display: flex;
      flex-direction: column;
      gap: 6px;
      align-items: flex-end;
      align-self: center;
    }
    .poster-help-banner__dismiss {
      padding: 7px 14px;
      border-radius: 8px;
      border: 1px solid #cbd5e1;
      background: #ffffff;
      color: #334155;
      font-family: inherit;
      font-size: 0.8rem;
      font-weight: 600;
      cursor: pointer;
      white-space: nowrap;
    }
    .poster-help-banner__dismiss:hover { background: #f1f5f9; border-color: #94a3b8; }
    .poster-help-fab {
      position: fixed;
      right: 18px;
      bottom: 18px;
      z-index: 120;
      width: 2.75rem;
      height: 2.75rem;
      border-radius: 999px;
      border: 2px solid #3b82f6;
      background: #ffffff;
      color: #1d4ed8;
      font-family: inherit;
      font-size: 1.1rem;
      font-weight: 800;
      cursor: pointer;
      box-shadow: 0 4px 16px rgba(37, 99, 235, 0.25);
      transition: transform 0.15s, box-shadow 0.15s;
    }
    .poster-help-fab:hover {
      transform: translateY(-2px);
      box-shadow: 0 6px 20px rgba(37, 99, 235, 0.35);
    }
    .poster-help-fab:focus-visible { outline: 2px solid #2563eb; outline-offset: 3px; }
    .poster-help-fab[aria-expanded="true"] {
      background: #2563eb;
      color: #ffffff;
      border-color: #1d4ed8;
    }
    @media (max-width: 720px) {
      .poster-help-banner__inner {
        grid-template-columns: auto 1fr;
      }
      .poster-help-banner__actions {
        grid-column: 1 / -1;
        flex-direction: row;
        justify-content: flex-end;
        align-self: auto;
      }
    }

    /* Poster zones — top→bottom mental model */
    .poster-zone__label {
      display: flex;
      align-items: center;
      gap: 10px;
      padding: 10px var(--space-2);
      font-size: 0.84rem;
      font-weight: 600;
      letter-spacing: -0.01em;
      color: #334155;
      background: #f8fafc;
      border-bottom: 1px solid #e2e8f0;
    }
    .poster-zone__step {
      display: inline-flex;
      align-items: center;
      justify-content: center;
      width: 1.35rem;
      height: 1.35rem;
      border-radius: 6px;
      background: #e2e8f0;
      color: #334155;
      font-family: "JetBrains Mono", monospace;
      font-size: 0.7rem;
      font-weight: 700;
      flex-shrink: 0;
    }
    .poster-zone--when { border-bottom: 2px solid var(--line); }
    .poster-zone--when .lifecycle-stages__head { border-bottom: none; }
    .poster-zone__label--lanes {
      border-bottom: 1px solid #e2e8f0;
      margin: 0;
    }
    .poster-zone--who .personas-title {
      border-bottom: none;
      padding-top: var(--space-1);
      padding-bottom: var(--space-1);
    }

    /* Sequence flow mental model overlay */
    .seq-overlay {
      position: fixed;
      inset: 0;
      z-index: 2000;
      display: flex;
      align-items: center;
      justify-content: center;
      padding: 20px;
      background: rgba(7, 13, 24, 0.72);
      backdrop-filter: blur(6px);
      opacity: 0;
      visibility: hidden;
      transition: opacity 0.25s ease, visibility 0.25s;
    }
    .seq-overlay.is-open {
      opacity: 1;
      visibility: visible;
    }
    .seq-dialog {
      width: min(1180px, 98vw);
      max-height: min(92vh, 900px);
      overflow: auto;
      background: #ffffff;
      border-radius: 16px;
      border: 2.5px solid var(--line);
      box-shadow: 0 24px 80px rgba(0, 0, 0, 0.35);
    }
    .seq-header {
      display: flex;
      align-items: flex-start;
      justify-content: space-between;
      gap: 16px;
      padding: 20px 24px 16px;
      border-bottom: 2px solid var(--line);
      background: linear-gradient(135deg, #0f172a 0%, #1e3a5f 100%);
      color: white;
      position: sticky;
      top: 0;
      z-index: 2;
    }
    .seq-header h2 {
      font-size: 1.25rem;
      font-weight: 700;
      letter-spacing: -0.02em;
    }
    .seq-header p,
    .seq-header-sub {
      margin-top: 6px;
      font-size: 0.78rem;
      opacity: 0.88;
      max-width: 52rem;
      line-height: 1.45;
    }
    .seq-close {
      flex-shrink: 0;
      width: 36px;
      height: 36px;
      border: 2px solid rgba(255,255,255,0.35);
      border-radius: 8px;
      background: rgba(255,255,255,0.1);
      color: white;
      font-size: 1.25rem;
      line-height: 1;
      cursor: pointer;
    }
    .seq-close:hover { background: rgba(255,255,255,0.2); }
    .seq-body { padding: 20px 24px 28px; }

    .seq-section { margin-bottom: 22px; }
    .seq-section-title {
      font-size: 0.62rem;
      font-weight: 700;
      text-transform: uppercase;
      letter-spacing: 0.08em;
      color: var(--muted);
      margin-bottom: 10px;
    }

    /* Five lanes band */
    .seq-lanes {
      display: grid;
      grid-template-columns: repeat(5, 1fr);
      gap: 6px;
    }
    .seq-lane {
      border-radius: var(--radius-md);
      border: 1.5px solid var(--line);
      padding: 10px 10px 12px;
      text-align: center;
      font-size: 0.62rem;
      font-weight: 700;
      line-height: 1.3;
      box-shadow: 0 1px 3px rgba(15, 23, 42, 0.08);
    }
    .seq-lane__name {
      display: block;
      font-size: 0.64rem;
      font-weight: 800;
      text-transform: uppercase;
      letter-spacing: 0.03em;
    }
    .seq-lane .seq-lane-num {
      display: inline-flex;
      align-items: center;
      justify-content: center;
      width: 1.4rem;
      height: 1.4rem;
      border-radius: 50%;
      background: rgba(255,255,255,0.85);
      border: 2px solid currentColor;
      font-family: "JetBrains Mono", monospace;
      font-size: 0.75rem;
      margin-bottom: 6px;
    }
    .seq-lane .seq-lane-phases {
      display: block;
      margin-top: 4px;
      font-size: 0.52rem;
      font-weight: 600;
      opacity: 0.85;
    }
    .seq-lane--discover { background: var(--discover-head); color: #78350f; }
    .seq-lane--plan { background: var(--plan-head); color: #1e3a8a; }
    .seq-lane--model { background: var(--model-head); color: #312e81; }
    .seq-lane--deploy { background: var(--deploy-head); color: #9a3412; }
    .seq-lane--operate { background: var(--operate-head); color: #065f46; }

    /* Phase spine */
    .seq-spine-wrap { overflow-x: auto; padding-bottom: 4px; }
    .seq-spine {
      display: flex;
      align-items: center;
      gap: 0;
      min-width: max-content;
    }
    .seq-phase {
      display: flex;
      flex-direction: column;
      align-items: center;
      min-width: 4.5rem;
      cursor: pointer;
      transition: transform 0.15s;
      border: none;
      background: transparent;
      padding: 0;
      font: inherit;
      color: inherit;
    }
    .seq-phase:hover { transform: translateY(-2px); }
    .seq-phase-node {
      width: 2rem;
      height: 2rem;
      border-radius: 8px;
      border: 2px solid var(--line);
      display: flex;
      align-items: center;
      justify-content: center;
      font-family: "JetBrains Mono", monospace;
      font-size: 0.72rem;
      font-weight: 800;
      background: white;
    }
    .seq-phase-label {
      margin-top: 4px;
      font-size: 0.48rem;
      font-weight: 600;
      text-align: center;
      max-width: 4.2rem;
      line-height: 1.2;
      color: var(--muted);
    }
    .seq-arrow {
      color: #94a3b8;
      font-size: 0.85rem;
      font-weight: 700;
      padding: 0 2px;
      flex-shrink: 0;
    }
    .seq-phase--intake .seq-phase-node { background: #e2e8f0; }
    .seq-phase--poc .seq-phase-node { background: #fef08a; }
    .seq-phase--proto .seq-phase-node { background: #fed7aa; }
    .seq-phase--pilot .seq-phase-node { background: #93c5fd; }
    .seq-phase--prd .seq-phase-node { background: #86efac; }
    .seq-phase--prod .seq-phase-node { background: #6ee7b7; }
    .seq-phase--op .seq-phase-node { background: #a5b4fc; }
    .seq-phase--ret .seq-phase-node { background: #cbd5e1; }

    /* FTI + deploy pipelines */
    .seq-pipelines {
      display: grid;
      grid-template-columns: repeat(4, 1fr);
      gap: 8px;
    }
    .seq-pipe {
      border: 2px solid var(--box-line);
      border-radius: 10px;
      padding: 10px 12px;
      background: #f8fafc;
      font-size: 0.58rem;
    }
    .seq-pipe strong {
      display: block;
      font-size: 0.55rem;
      text-transform: uppercase;
      letter-spacing: 0.05em;
      margin-bottom: 4px;
    }
    .seq-pipe--f { border-left: 4px solid #059669; }
    .seq-pipe--t { border-left: 4px solid #2563eb; }
    .seq-pipe--i { border-left: 4px solid #7c3aed; }
    .seq-pipe--d { border-left: 4px solid #ea580c; }

    /* Governance thread */
    .seq-gov-thread {
      display: flex;
      align-items: stretch;
      gap: 0;
      border: 2px solid #8b5cf6;
      border-radius: 10px;
      overflow: hidden;
      font-size: 0.58rem;
      font-weight: 600;
    }
    .seq-gov-seg {
      flex: 1;
      padding: 10px 12px;
      text-align: center;
      border-right: 1px solid rgba(139, 92, 246, 0.35);
    }
    .seq-gov-seg:last-child { border-right: none; }
    .seq-gov-seg--dst { background: var(--steward); color: #0369a1; }
    .seq-gov-seg--gc { background: var(--gov); color: var(--gov-h); }
    .seq-gov-seg--daigo { background: #fce7f3; color: #9d174d; }

    /* Loops + gap */
    .seq-loops {
      display: grid;
      grid-template-columns: 1fr 1fr;
      gap: 10px;
    }
    .seq-loop-box {
      border: 1.5px dashed var(--box-line);
      border-radius: 10px;
      padding: 12px 14px;
      font-size: 0.58rem;
      background: #fafafa;
    }
    .seq-loop-box strong {
      display: block;
      font-size: 0.52rem;
      text-transform: uppercase;
      letter-spacing: 0.05em;
      color: var(--muted);
      margin-bottom: 6px;
    }
    .seq-loop-item {
      display: flex;
      align-items: center;
      gap: 6px;
      margin-bottom: 4px;
    }
    .seq-loop-arrow { color: #64748b; font-weight: 700; }

    .seq-gap-bar {
      margin-top: 8px;
      padding: 10px 14px;
      border-radius: 10px;
      background: var(--gap);
      border: 2px dashed var(--gap-h);
      font-size: 0.6rem;
      color: #991b1b;
      font-weight: 600;
      text-align: center;
    }

    .seq-legend {
      display: flex;
      flex-wrap: wrap;
      gap: 6px;
      margin-top: 16px;
      padding-top: 14px;
      border-top: 1px solid #e2e8f0;
      font-size: 0.58rem;
      color: var(--muted);
    }
    .seq-legend__stage {
      padding: 5px 10px;
      border-radius: 8px;
      border: 1px solid rgba(15, 23, 42, 0.12);
      font-weight: 600;
    }
    .seq-legend__stage strong { font-weight: 800; }
    .seq-legend__stage--intake { background: #e2e8f0; color: #334155; }
    .seq-legend__stage--poc { background: #fef08a; color: #713f12; }
    .seq-legend__stage--proto { background: #fed7aa; color: #9a3412; }
    .seq-legend__stage--pilot { background: #93c5fd; color: #1e3a8a; }
    .seq-legend__stage--prd { background: #fcd34d; color: #78350f; }
    .seq-legend__stage--prod { background: #6ee7b7; color: #065f46; }
    .seq-legend__stage--op { background: #a5b4fc; color: #3730a3; }
    .seq-legend__stage--ret { background: #cbd5e1; color: #334155; }

    @media (max-width: 800px) {
      .seq-lanes { grid-template-columns: 1fr; }
      .seq-pipelines { grid-template-columns: 1fr 1fr; }
      .seq-loops { grid-template-columns: 1fr; }
      .seq-gov-thread { flex-direction: column; }
      .seq-gov-seg { border-right: none; border-bottom: 1px solid rgba(139, 92, 246, 0.35); }
    }

  .lifecycle-stages {
      background: linear-gradient(180deg, #f8fafc 0%, #ffffff 100%);
      padding: 0 10px 10px;
    }
    .lifecycle-stages__head {
      display: flex;
      flex-wrap: wrap;
      align-items: baseline;
      justify-content: space-between;
      gap: 8px 16px;
      margin-bottom: 10px;
    }
    .lifecycle-stages__title {
      font-size: 0.72rem;
      font-weight: 800;
      text-transform: uppercase;
      letter-spacing: 0.12em;
      color: #475569;
    }
    .lifecycle-stages__hint {
      font-size: 0.72rem;
      color: #64748b;
      font-weight: 500;
    }
    .lifecycle-stages__track {
      display: flex;
      gap: 5px;
      align-items: stretch;
    }
    .mat-stage {
      --stage-bg: #e2e8f0;
      --stage-fg: #1e293b;
      --stage-border: rgba(15, 23, 42, 0.14);
      flex: var(--stage-span, 1) 1 0;
      min-width: 0;
      display: flex;
      flex-direction: column;
      gap: 8px;
      padding: 12px 10px 10px;
      border-radius: 10px;
      border: 2px solid var(--stage-border);
      background: var(--stage-bg);
      color: var(--stage-fg);
      box-shadow: 0 1px 2px rgba(15, 23, 42, 0.06);
    }
    .mat-stage__label {
      display: flex;
      flex-direction: column;
      gap: 2px;
      text-align: center;
    }
    .mat-stage__name {
      font-size: clamp(0.82rem, 1.1vw, 1.05rem);
      font-weight: 800;
      line-height: 1.15;
      letter-spacing: 0.02em;
      text-transform: uppercase;
    }
    .mat-stage__range {
      font-size: 0.62rem;
      font-weight: 600;
      opacity: 0.82;
      letter-spacing: 0.04em;
    }
    .mat-stage__phases {
      display: flex;
      flex-wrap: wrap;
      justify-content: center;
      gap: 4px;
      margin-top: auto;
    }
    .mat-phase-chip {
      min-width: 1.85rem;
      padding: 4px 6px;
      border-radius: 6px;
      border: 1px solid rgba(15, 23, 42, 0.18);
      background: rgba(255, 255, 255, 0.72);
      font-size: 0.68rem;
      font-weight: 800;
      font-variant-numeric: tabular-nums;
      color: inherit;
      cursor: pointer;
      transition: transform 0.12s, box-shadow 0.12s, background 0.12s;
    }
    .mat-phase-chip:hover {
      transform: translateY(-1px);
      box-shadow: 0 2px 6px rgba(15, 23, 42, 0.12);
      background: #ffffff;
    }
    .mat-phase-chip:focus-visible {
      outline: 2px solid #3b82f6;
      outline-offset: 2px;
    }
    .mat-intake { --stage-bg: #e2e8f0; --stage-fg: #334155; }
    .mat-poc { --stage-bg: #fef08a; --stage-fg: #713f12; --stage-border: #ca8a04; }
    .mat-proto { --stage-bg: #fed7aa; --stage-fg: #9a3412; --stage-border: #ea580c; }
    .mat-pilot { --stage-bg: #93c5fd; --stage-fg: #1e3a8a; --stage-border: #2563eb; }
    .mat-mvp { --stage-bg: #fcd34d; --stage-fg: #78350f; --stage-border: #d97706; }
    .mat-prod { --stage-bg: #6ee7b7; --stage-fg: #065f46; --stage-border: #059669; }
    .mat-op { --stage-bg: #a5b4fc; --stage-fg: #3730a3; --stage-border: #4f46e5; }
    .mat-ret { --stage-bg: #cbd5e1; --stage-fg: #334155; --stage-border: #64748b; }
    @media (max-width: 900px) {
      .lifecycle-stages { padding: 10px 10px 8px; }
      .mat-stage { padding: 8px 6px; }
      .mat-stage__name { font-size: 0.72rem; }
      .mat-stage__range { display: none; }
    }

    .main-grid {
      display: flex;
      flex-direction: column;
      min-height: 920px;
      background: #ffffff;
    }

    .phases {
      --lane-overlap: 10px;
      display: flex;
      align-items: stretch;
      border-bottom: 2px solid var(--line);
      overflow: visible;
      padding: 8px 6px 12px 4px;
      gap: 0;
      min-height: 0;
      isolation: isolate;
      background: #ffffff;
    }
    .pillar {
      --lane-scale: 1;
      display: flex;
      flex-direction: column;
      min-width: 0;
      flex: 1 1 0;
      position: relative;
      margin-left: calc(-1 * var(--lane-overlap));
      border-radius: 12px;
      border: 2px solid var(--pillar-border, rgba(15, 23, 42, 0.24));
      overflow: hidden;
      cursor: pointer;
      isolation: isolate;
      background: #ffffff;
      transition:
        flex 0.3s cubic-bezier(0.25, 0.1, 0.25, 1),
        box-shadow 0.3s cubic-bezier(0.25, 0.1, 0.25, 1),
        transform 0.3s cubic-bezier(0.25, 0.1, 0.25, 1),
        border-color 0.25s ease,
        overflow 0s linear 0.3s,
        z-index 0s;
      box-shadow: var(--lane-shadow);
      align-self: stretch;
    }
    .pillar::before {
      content: "";
      position: absolute;
      inset: 0;
      border-radius: inherit;
      pointer-events: none;
      opacity: 0;
      z-index: 0;
      background: linear-gradient(180deg, rgba(255, 255, 255, 0.42) 0%, transparent 22%);
      transition: opacity 0.4s ease;
    }
    .pillar > * { position: relative; z-index: 1; }
    .pillar--discover { background: var(--discover); --pillar-border: #d97706; --pillar-glow: rgba(217, 119, 6, 0.32); }
    .pillar--plan { background: var(--plan); --pillar-border: #2563eb; --pillar-glow: rgba(37, 99, 235, 0.28); }
    .pillar--model { background: var(--model); --pillar-border: #4f46e5; --pillar-glow: rgba(79, 70, 229, 0.28); }
    .pillar--deploy { background: var(--deploy); --pillar-border: #ea580c; --pillar-glow: rgba(234, 88, 12, 0.3); }
    .pillar--operate { background: var(--operate); --pillar-border: #059669; --pillar-glow: rgba(5, 150, 105, 0.3); }
    .pillar:first-child { margin-left: 0; }
    .pillar:nth-child(1) { z-index: 1; }
    .pillar:nth-child(2) { z-index: 2; }
    .pillar:nth-child(3) { z-index: 3; }
    .pillar:nth-child(4) { z-index: 4; }
    .pillar:nth-child(5) { z-index: 5; }
    @media (hover: hover) and (min-width: 900px) {
      .pillar.is-hover,
      .pillar.is-lane-keyboard {
        --lane-scale: 1.16;
      }
      .pillar.is-hover,
      .pillar.is-lane-keyboard:not(.is-focused) {
        flex: 2.5 1 0;
        z-index: 30;
        overflow: visible;
        transition:
          flex 0.5s cubic-bezier(0.25, 0.1, 0.25, 1) 0.2s,
          box-shadow 0.5s cubic-bezier(0.25, 0.1, 0.25, 1) 0.2s,
          transform 0.5s cubic-bezier(0.25, 0.1, 0.25, 1) 0.2s,
          border-color 0.4s ease 0.15s,
          overflow 0s,
          z-index 0s;
        border-color: var(--pillar-border, rgba(15, 23, 42, 0.38));
        background: #ffffff;
        box-shadow:
          0 0 0 1px var(--pillar-border),
          0 0 0 4px var(--pillar-glow, rgba(59, 130, 246, 0.28)),
          0 4px 6px rgba(0, 0, 0, 0.05),
          0 12px 40px rgba(0, 0, 0, 0.12),
          inset 0 1px 0 rgba(255, 255, 255, 0.75);
        transform: translateY(-2px);
      }
      .pillar.is-hover::before,
      .pillar.is-lane-keyboard:not(.is-focused)::before { opacity: 1; }
      .pillar.is-hover,
      .pillar.is-lane-keyboard:not(.is-focused) {
        background: color-mix(in srgb, var(--discover) 12%, #ffffff);
      }
      .pillar--plan.is-hover,
      .pillar--plan.is-lane-keyboard:not(.is-focused) { background: color-mix(in srgb, var(--plan) 14%, #ffffff); }
      .pillar--model.is-hover,
      .pillar--model.is-lane-keyboard:not(.is-focused) { background: color-mix(in srgb, var(--model) 14%, #ffffff); }
      .pillar--deploy.is-hover,
      .pillar--deploy.is-lane-keyboard:not(.is-focused) { background: color-mix(in srgb, var(--deploy) 14%, #ffffff); }
      .pillar--operate.is-hover,
      .pillar--operate.is-lane-keyboard:not(.is-focused) { background: color-mix(in srgb, var(--operate) 14%, #ffffff); }
    }
    .pillar.is-focused,
    .pillar.is-lane-keyboard {
      --lane-scale: 1.2;
    }
    .pillar.is-lane-keyboard {
      z-index: 35;
      box-shadow:
        0 0 0 1px var(--pillar-border),
        0 0 0 4px var(--pillar-glow, rgba(59, 130, 246, 0.35)),
        0 4px 6px rgba(0, 0, 0, 0.05),
        0 12px 40px rgba(0, 0, 0, 0.12),
        inset 0 0 0 2px rgba(59, 130, 246, 0.45);
    }
    .pillar.is-focused {
      flex: 2.5 1 0;
      z-index: 40;
      overflow: visible;
      transition:
        flex 0.45s cubic-bezier(0.25, 0.1, 0.25, 1),
        box-shadow 0.45s cubic-bezier(0.25, 0.1, 0.25, 1),
        transform 0.45s cubic-bezier(0.25, 0.1, 0.25, 1),
        border-color 0.35s ease,
        overflow 0s,
        z-index 0s;
      border-color: var(--pillar-border);
      background: #ffffff;
      box-shadow:
        0 0 0 1px var(--pillar-border),
        0 0 0 5px var(--pillar-glow, rgba(37, 99, 235, 0.4)),
        0 4px 6px rgba(0, 0, 0, 0.05),
        0 12px 40px rgba(0, 0, 0, 0.14),
        inset 0 1px 0 rgba(255, 255, 255, 0.8);
      transform: translateY(-2px);
    }
    .pillar.is-focused .chevron-head {
      box-shadow: inset 0 0 0 2px rgba(37, 99, 235, 0.45);
    }
    .pillar.is-focused::before { opacity: 1; }
    .pillar:focus-visible {
      outline: 2px solid #3b82f6;
      outline-offset: 3px;
    }

    .chevron-head {
      display: flex;
      align-items: center;
      justify-content: flex-start;
      gap: 8px;
      padding: 11px 10px;
      min-height: 3.25rem;
      font-size: 0.82rem;
      font-weight: 700;
      letter-spacing: -0.01em;
      border-bottom: 2px solid rgba(15, 23, 42, 0.12);
      position: relative;
      z-index: 2;
      overflow: hidden;
      cursor: pointer;
      transition: filter 0.15s, box-shadow 0.2s;
      flex-shrink: 0;
    }
    .chevron-num {
      flex-shrink: 0;
      display: inline-flex;
      align-items: center;
      justify-content: center;
      width: 1.75rem;
      height: 1.75rem;
      min-width: 1.75rem;
      font-family: "JetBrains Mono", monospace;
      font-size: 1rem;
      font-weight: 800;
      line-height: 1;
      border-radius: 50%;
      background: rgba(255, 255, 255, 0.92);
      border: 2px solid currentColor;
      box-shadow: 0 1px 3px rgba(15, 23, 42, 0.12);
    }
    .pillar.is-hover .chevron-num,
    .pillar.is-focused .chevron-num {
      width: 2rem;
      height: 2rem;
      min-width: 2rem;
      font-size: 1.1rem;
    }
    .chevron-head__text {
      flex: 1;
      min-width: 0;
      display: flex;
      flex-direction: column;
      gap: 1px;
      line-height: 1.2;
    }
    .chevron-head__title {
      min-width: 0;
      line-height: 1.2;
      font-size: clamp(0.68rem, 1.15vw, 0.82rem);
      font-weight: 800;
      display: -webkit-box;
      -webkit-line-clamp: 2;
      -webkit-box-orient: vertical;
      overflow: hidden;
      white-space: normal;
    }
    .chevron-head__title-row {
      display: flex;
      flex-direction: column;
      align-items: flex-start;
      gap: 2px;
      min-width: 0;
      width: 100%;
    }
    .chevron-head__range {
      flex-shrink: 0;
      font-family: "JetBrains Mono", monospace;
      font-size: 0.62rem;
      font-weight: 700;
      letter-spacing: 0.01em;
      text-transform: none;
      opacity: 0.9;
      line-height: 1.2;
    }
    .pillar.is-hover .chevron-head__title,
    .pillar.is-focused .chevron-head__title,
    .pillar.is-lane-keyboard .chevron-head__title {
      font-size: clamp(0.78rem, 1.2vw, 0.9rem);
      -webkit-line-clamp: 1;
    }
    .pillar.is-hover .chevron-head__title-row,
    .pillar.is-focused .chevron-head__title-row,
    .pillar.is-lane-keyboard .chevron-head__title-row {
      flex-direction: row;
      align-items: baseline;
      gap: 6px;
    }
    .chevron-brief {
      flex-shrink: 0;
      margin-left: auto;
      width: 22px;
      height: 22px;
      border: 1.5px solid rgba(15, 23, 42, 0.32);
      border-radius: 5px;
      background: rgba(255, 255, 255, 0.55);
      font-size: 0.65rem;
      font-weight: 700;
      line-height: 1;
      cursor: pointer;
      display: inline-flex;
      align-items: center;
      justify-content: center;
      opacity: 0;
      pointer-events: none;
      transition: opacity 0.2s, background 0.15s, box-shadow 0.15s;
    }
    .pillar.is-hover .chevron-brief,
    .pillar.is-focused .chevron-brief,
    .chevron-brief:focus-visible {
      opacity: 1;
      pointer-events: auto;
    }
    .chevron-brief:hover { background: white; box-shadow: var(--click-shadow); }
    .chevron-head:hover { filter: brightness(0.97); }
    .chevron-head:active { transform: scale(0.99); }
    .chevron-head.pillar-active {
      box-shadow: inset 0 0 0 3px #2563eb, 0 4px 14px rgba(37, 99, 235, 0.25);
      filter: none;
    }
    .pillar:nth-child(1) .chevron-head { border-radius: 10px 0 0 0; padding-left: 12px; }
    .pillar:nth-child(5) .chevron-head { border-radius: 0 10px 0 0; padding-right: 12px; }
    .pillar--discover .chevron-head { background: linear-gradient(180deg, var(--discover-head) 0%, #f59e0b 100%); color: #422006; }
    .pillar--plan .chevron-head { background: linear-gradient(180deg, var(--plan-head) 0%, #3b82f6 100%); color: #172554; }
    .pillar--model .chevron-head { background: linear-gradient(180deg, var(--model-head) 0%, #6366f1 100%); color: #1e1b4b; }
    .pillar--deploy .chevron-head { background: linear-gradient(180deg, var(--deploy-head) 0%, #f97316 100%); color: #431407; }
    .pillar--operate .chevron-head { background: linear-gradient(180deg, var(--operate-head) 0%, #10b981 100%); color: #022c22; }

    .sub-phases {
      display: flex;
      flex-wrap: wrap;
      gap: 6px;
      padding: 12px 14px;
      border-bottom: 1.5px dashed #94a3b8;
      background: #ffffff;
      flex-shrink: 0;
    }
    .pillar--discover .sub-phases { background: #fffbeb; border-bottom-color: #d97706; }
    .pillar--plan .sub-phases { background: #eff6ff; border-bottom-color: #3b82f6; }
    .pillar--model .sub-phases { background: #eef2ff; border-bottom-color: #6366f1; }
    .pillar--deploy .sub-phases { background: #fff7ed; border-bottom-color: #ea580c; }
    .pillar--operate .sub-phases { background: #ecfdf5; border-bottom-color: #059669; }
    @media (max-width: 899px), (hover: none) {
      .phases {
        flex-direction: column;
        padding: 10px;
        min-height: 0;
      }
      .pillar {
        margin-left: 0;
        flex: none;
        width: 100%;
      }
      .pillar.is-focused {
        flex: none;
        width: 100%;
      }
      .chevron-brief {
        opacity: 1;
        pointer-events: auto;
      }
    }
    .phase-chip {
      font-size: 0.65rem;
      font-weight: 600;
      padding: 4px 8px;
      border-radius: 4px;
      border: 1.5px solid var(--line);
      background: white;
      white-space: nowrap;
      display: inline-flex;
      align-items: center;
      gap: 4px;
      cursor: pointer;
      transition: box-shadow 0.15s, transform 0.15s, border-color 0.15s;
    }
    .phase-chip:hover { box-shadow: var(--click-shadow); transform: translateY(-1px); border-color: #3b82f6; }
    .phase-chip .num { font-family: "JetBrains Mono", monospace; font-weight: 700; opacity: 0.7; }
    .phase-chip .mat-tag {
      font-size: 0.44rem;
      font-weight: 700;
      text-transform: uppercase;
      padding: 1px 4px;
      border-radius: 3px;
      letter-spacing: 0.03em;
      border: 1px solid rgba(15, 23, 42, 0.18);
    }
    .mat-tag--intake { background: #cbd5e1; color: #334155; border-color: #94a3b8; }
    .mat-tag--poc { background: #fef08a; color: #713f12; border-color: #ca8a04; }
    .mat-tag--proto { background: #fed7aa; color: #9a3412; border-color: #ea580c; }
    .mat-tag--pilot { background: #93c5fd; color: #1e3a8a; border-color: #2563eb; }
    .mat-tag--prd { background: #86efac; color: #14532d; border-color: #16a34a; }
    .mat-tag--prod { background: #6ee7b7; color: #065f46; border-color: #059669; }
    .mat-tag--op { background: #a5b4fc; color: #3730a3; border-color: #4f46e5; }
    .mat-tag--ret { background: #cbd5e1; color: #334155; border-color: #94a3b8; }
    .phase-chip.fti { border-color: #047857; color: #065f46; background: #d1fae5; }

    .gov-strip {
      display: flex;
      flex-wrap: wrap;
      gap: 5px;
      padding: 8px 14px;
      border-bottom: 1.5px solid #c4b5fd;
      background: linear-gradient(90deg, #ede9fe 0%, #e0f2fe 100%);
      flex-shrink: 0;
    }
    .gov-touch {
      font-size: 0.56rem;
      font-weight: 600;
      padding: 3px 7px;
      border-radius: 4px;
      border: 1.5px solid #8b5cf6;
      background: #ffffff;
      color: var(--gov-h);
      cursor: pointer;
      transition: background 0.15s, box-shadow 0.15s;
      display: inline-flex;
      align-items: center;
      flex-wrap: wrap;
      gap: 4px;
    }
    .gov-touch--steward { border-color: #0284c7; color: var(--steward-h); background: var(--steward); }
    .gov-touch:hover { box-shadow: var(--click-shadow); }

    .pillar-body {
      flex: 1;
      min-height: 0;
      padding: 14px 14px 16px;
      display: flex;
      flex-direction: column;
      gap: 14px;
      font-size: 0.72rem;
      background: #ffffff;
      overflow-x: auto;
      overflow-y: visible;
      -webkit-overflow-scrolling: touch;
    }
    .pillar--discover .pillar-body { background: linear-gradient(180deg, #ffffff 0%, var(--discover) 100%); }
    .pillar--plan .pillar-body { background: linear-gradient(180deg, #ffffff 0%, var(--plan) 100%); }
    .pillar--model .pillar-body { background: linear-gradient(180deg, #ffffff 0%, var(--model) 100%); }
    .pillar--deploy .pillar-body { background: linear-gradient(180deg, #ffffff 0%, var(--deploy) 100%); }
    .pillar--operate .pillar-body { background: linear-gradient(180deg, #ffffff 0%, var(--operate) 100%); }
    .pillar.is-hover .pillar-body,
    .pillar.is-focused .pillar-body,
    .pillar.is-lane-keyboard .pillar-body { background: #ffffff; }

    .pillar.is-hover .pillar-body,
    .pillar.is-focused .pillar-body,
    .pillar.is-lane-keyboard .pillar-body {
      font-size: calc(0.74rem * var(--lane-scale));
    }
    .pillar.is-hover .box-title,
    .pillar.is-focused .box-title,
    .pillar.is-lane-keyboard .box-title {
      font-size: calc(0.64rem * var(--lane-scale));
    }
    .pillar.is-hover .tasks li,
    .pillar.is-focused .tasks li,
    .pillar.is-lane-keyboard .tasks li {
      font-size: calc(0.66rem * var(--lane-scale));
    }
    .pillar.is-hover .tasks li::before,
    .pillar.is-focused .tasks li::before,
    .pillar.is-lane-keyboard .tasks li::before {
      font-size: calc(0.52rem * var(--lane-scale));
    }
    .pillar.is-hover .flow-node,
    .pillar.is-focused .flow-node,
    .pillar.is-lane-keyboard .flow-node {
      font-size: calc(0.66rem * var(--lane-scale));
    }
    .pillar.is-hover .flow-arr,
    .pillar.is-focused .flow-arr,
    .pillar.is-lane-keyboard .flow-arr {
      font-size: calc(0.52rem * var(--lane-scale));
    }
    .pillar.is-hover .daps-block,
    .pillar.is-focused .daps-block,
    .pillar.is-lane-keyboard .daps-block {
      min-height: calc(52px * var(--lane-scale));
      padding: calc(6px * var(--lane-scale)) calc(8px * var(--lane-scale));
    }
    .pillar.is-hover .daps-block-label,
    .pillar.is-focused .daps-block-label,
    .pillar.is-lane-keyboard .daps-block-label {
      font-size: calc(0.62rem * var(--lane-scale));
    }
    .pillar.is-hover .daps-block-q,
    .pillar.is-focused .daps-block-q,
    .pillar.is-lane-keyboard .daps-block-q {
      font-size: calc(0.54rem * var(--lane-scale));
    }
    .pillar.is-hover .daps-block-meta,
    .pillar.is-focused .daps-block-meta,
    .pillar.is-lane-keyboard .daps-block-meta {
      font-size: calc(0.5rem * var(--lane-scale));
    }
    .pillar.is-hover .daps-block-vars,
    .pillar.is-focused .daps-block-vars,
    .pillar.is-lane-keyboard .daps-block-vars {
      font-size: calc(0.58rem * var(--lane-scale));
    }
    .pillar.is-hover .daps-tier-head,
    .pillar.is-focused .daps-tier-head,
    .pillar.is-lane-keyboard .daps-tier-head {
      font-size: calc(0.58rem * var(--lane-scale));
    }
    .pillar.is-hover .daps-flow-label,
    .pillar.is-focused .daps-flow-label,
    .pillar.is-lane-keyboard .daps-flow-label {
      font-size: calc(0.5rem * var(--lane-scale));
    }
    .pillar.is-hover .daps-flow-arrow,
    .pillar.is-focused .daps-flow-arrow,
    .pillar.is-lane-keyboard .daps-flow-arrow {
      font-size: calc(0.88rem * var(--lane-scale));
    }
    .pillar.is-hover .daps-filled-badge,
    .pillar.is-focused .daps-filled-badge,
    .pillar.is-lane-keyboard .daps-filled-badge {
      font-size: calc(0.44rem * var(--lane-scale));
    }
    .pillar.is-hover .phase-chip,
    .pillar.is-focused .phase-chip,
    .pillar.is-lane-keyboard .phase-chip {
      font-size: calc(0.68rem * var(--lane-scale));
      padding: calc(4px * var(--lane-scale)) calc(8px * var(--lane-scale));
    }
    .pillar.is-hover .phase-chip .mat-tag,
    .pillar.is-focused .phase-chip .mat-tag,
    .pillar.is-lane-keyboard .phase-chip .mat-tag {
      font-size: calc(0.48rem * var(--lane-scale));
    }
    .pillar.is-hover .io-pair,
    .pillar.is-focused .io-pair,
    .pillar.is-lane-keyboard .io-pair {
      font-size: calc(0.58rem * var(--lane-scale));
    }
    .pillar.is-hover .gov-touch,
    .pillar.is-focused .gov-touch,
    .pillar.is-lane-keyboard .gov-touch {
      font-size: calc(0.58rem * var(--lane-scale));
      padding: calc(3px * var(--lane-scale)) calc(7px * var(--lane-scale));
    }

    /* Discover lane: slightly larger DAPS at 1× (collapsed) for legibility */
    .pillar--discover:not(.is-hover):not(.is-focused):not(.is-lane-keyboard) .daps-block-label {
      font-size: 0.61rem;
    }
    .pillar--discover:not(.is-hover):not(.is-focused):not(.is-lane-keyboard) .daps-block-q {
      font-size: 0.53rem;
    }
    .pillar--discover:not(.is-hover):not(.is-focused):not(.is-lane-keyboard) .daps-block-meta {
      font-size: 0.48rem;
    }
    .pillar--discover:not(.is-hover):not(.is-focused):not(.is-lane-keyboard) .daps-tier-head {
      font-size: 0.56rem;
    }

    .box { border: 1.5px solid var(--box-line); border-radius: 8px; background: #ffffff; overflow: hidden; box-shadow: 0 1px 2px rgba(15, 23, 42, 0.04); }
    .box-title {
      font-size: 0.6rem;
      font-weight: 700;
      text-transform: uppercase;
      letter-spacing: 0.06em;
      padding: 6px 10px;
      border-bottom: 1.5px solid var(--box-line);
      background: rgba(15, 23, 42, 0.06);
      color: #334155;
    }
    .box-title--daps {
      display: flex;
      flex-wrap: wrap;
      align-items: center;
      justify-content: space-between;
      gap: 6px var(--space-1);
    }
    .box-title__main { flex: 1 1 12rem; min-width: 0; }
    .daps-flow-legend {
      display: inline-flex;
      align-items: center;
      flex-wrap: wrap;
      gap: 3px 5px;
      font-size: 0.5rem;
      font-weight: 600;
      text-transform: none;
      letter-spacing: 0.02em;
      color: #92400e;
      background: rgba(255, 255, 255, 0.65);
      border: 1px solid rgba(180, 83, 9, 0.35);
      border-radius: 6px;
      padding: 3px 8px;
    }
    .daps-flow-legend__arr {
      font-size: 0.72rem;
      font-weight: 800;
      color: #b45309;
      line-height: 1;
    }
    .box-content { padding: 10px 12px; }

    .clickable { cursor: pointer; }
    .clickable:focus-visible { outline: 2px solid #3b82f6; outline-offset: 2px; }

    .daps-diagram {
      display: flex;
      flex-direction: column;
      gap: 6px;
      padding: 4px 0;
    }
    .daps-tier {
      border: 1.5px solid #b45309;
      border-radius: var(--radius-md);
      background: #ffffff;
      overflow: hidden;
      box-shadow: 0 1px 3px rgba(180, 83, 9, 0.08);
    }
    .daps-tier-head {
      font-size: 0.54rem;
      font-weight: 700;
      text-transform: uppercase;
      letter-spacing: 0.07em;
      padding: 5px 10px;
      border-bottom: 2px solid #b45309;
      color: #78350f;
      text-align: center;
    }
    .daps-tier--business .daps-tier-head { background: #fde68a; }
    .daps-tier--decision .daps-tier-head { background: #fcd34d; }
    .daps-tier--analytics .daps-tier-head { background: #fbbf24; color: #78350f; }
    .daps-tier-body {
      display: grid;
      gap: 6px;
      padding: 8px;
    }
    .daps-tier--business .daps-tier-body { grid-template-columns: repeat(3, 1fr); }
    .daps-tier--decision .daps-tier-body { grid-template-columns: repeat(2, 1fr); }
    .daps-tier--analytics .daps-tier-body { grid-template-columns: 1fr; }
    @media (min-width: 900px) {
      .daps-tier--decision .daps-tier-body { grid-template-columns: repeat(3, 1fr); }
      .daps-tier--analytics .daps-tier-body { grid-template-columns: repeat(3, 1fr); }
    }
    .daps-block {
      position: relative;
      border: 1.5px solid var(--box-line);
      border-radius: 8px;
      padding: 6px 8px;
      background: #ffffff;
      cursor: pointer;
      transition: box-shadow 0.15s, transform 0.15s, border-color 0.15s;
      min-height: 52px;
      display: flex;
      flex-direction: column;
      gap: 3px;
    }
    .daps-block--filled { border-color: #059669; }
    .daps-filled-dot {
      position: absolute;
      top: 5px;
      right: 5px;
      width: 7px;
      height: 7px;
      border-radius: 50%;
      background: #10b981;
      box-shadow: 0 0 0 2px rgba(16, 185, 129, 0.25);
      opacity: 0;
      pointer-events: none;
      transition: opacity 0.15s;
    }
    .daps-block--filled .daps-filled-dot { opacity: 1; }
    .daps-filled-badge {
      position: absolute;
      top: 4px;
      right: 4px;
      font-size: 0.4rem;
      font-weight: 700;
      text-transform: uppercase;
      letter-spacing: 0.04em;
      padding: 1px 4px;
      border-radius: 3px;
      background: #d1fae5;
      color: #047857;
      border: 1px solid #6ee7b7;
      opacity: 0;
      pointer-events: none;
      transition: opacity 0.15s;
    }
    .daps-block--filled .daps-filled-badge { opacity: 1; }
    .daps-block--filled .daps-filled-dot { display: none; }
    .daps-block:hover {
      box-shadow: var(--click-shadow);
      transform: translateY(-1px);
      border-color: #d97706;
    }
    .daps-tier--business .daps-block { background: #fffbeb; }
    .daps-tier--decision .daps-block { background: #fff7ed; }
    .daps-tier--analytics .daps-block { background: #fef9c3; }
    .daps-block-label {
      font-size: 0.58rem;
      font-weight: 700;
      color: #78350f;
      line-height: 1.2;
    }
    .daps-block-q {
      font-size: 0.5rem;
      color: #475569;
      line-height: 1.3;
      font-style: italic;
    }
    .daps-block-meta {
      font-size: 0.46rem;
      font-weight: 600;
      color: #b45309;
      margin-top: auto;
      font-family: "JetBrains Mono", monospace;
    }
    .daps-block-vars {
      font-family: "JetBrains Mono", monospace;
      font-size: 0.56rem;
      font-weight: 600;
      color: #78350f;
    }
    .daps-flow {
      display: flex;
      flex-direction: column;
      align-items: center;
      gap: 2px;
      padding: 4px 0;
      margin: 2px 0;
      border-top: 1px dashed rgba(180, 83, 9, 0.35);
      border-bottom: 1px dashed rgba(180, 83, 9, 0.35);
      pointer-events: none;
    }
    .daps-flow-arrow {
      font-size: 0.88rem;
      font-weight: 800;
      color: #b45309;
      line-height: 1;
    }
    .daps-flow-label {
      font-size: 0.46rem;
      font-weight: 600;
      text-transform: uppercase;
      letter-spacing: 0.05em;
      color: #92400e;
      opacity: 0.9;
    }

    .flow { display: flex; flex-wrap: wrap; align-items: center; gap: 2px 3px; }
    .flow-node {
      padding: 4px 7px;
      border: 1.5px solid var(--box-line);
      border-radius: 5px;
      background: #f1f5f9;
      font-size: 0.64rem;
      font-weight: 600;
      cursor: pointer;
      transition: box-shadow 0.15s, border-color 0.15s;
    }
    .flow-node:hover { box-shadow: var(--click-shadow); border-color: #3b82f6; }
    .flow-arr { color: var(--muted); font-size: 0.5rem; font-weight: 700; }

    .io-pair {
      display: grid;
      grid-template-columns: 1fr auto 1fr;
      gap: 4px;
      align-items: center;
      margin-bottom: 4px;
      font-size: 0.56rem;
    }
    .io-in, .io-out {
      padding: 3px 5px;
      border-radius: 4px;
      border: 1.5px solid #94a3b8;
      background: #f8fafc;
    }
    .io-in { border-left: 3px solid #3b82f6; }
    .io-out { border-left: 3px solid #10b981; }
    .io-arrow { color: var(--muted); font-weight: 700; text-align: center; }

    .tasks { list-style: none; }
    .tasks li {
      display: flex;
      align-items: center;
      gap: 5px;
      padding: 3px 0;
      font-size: 0.64rem;
      line-height: 1.35;
    }
    .tasks li::before {
      content: "▸";
      flex-shrink: 0;
      color: var(--muted);
      font-size: 0.5rem;
      width: 8px;
    }
    .task-text { flex: 1; min-width: 0; }

    .role-icons {
      display: inline-flex;
      align-items: center;
      gap: 5px;
      flex-shrink: 0;
    }
    .role-icon {
      --role-icon-size: 24px;
      display: inline-flex;
      align-items: center;
      justify-content: center;
      vertical-align: middle;
      cursor: default;
      flex-shrink: 0;
      min-width: 28px;
      min-height: 28px;
      padding: 2px;
    }
    .role-icon--sm { --role-icon-size: 20px; }
    .role-icon--lg { --role-icon-size: 28px; }
    .role-icon--legend { --role-icon-size: 30px; min-width: 34px; min-height: 34px; }
    .role-icon__svg {
      display: block;
      height: calc(var(--role-icon-size) * var(--lane-scale, 1));
      width: auto;
      overflow: visible;
    }
    .role-legend .role-icon__svg {
      height: var(--role-icon-size);
    }
    .role-icon:focus-visible { outline: 2px solid #3b82f6; outline-offset: 1px; border-radius: 2px; }

    .flow-node {
      display: inline-flex;
      align-items: center;
      gap: 4px;
    }
    .infra-roles { display: block; margin-bottom: 3px; }

    .role-legend {
      border-top: 1px solid #e2e8f0;
      background: #f8fafc;
      padding: 16px 24px 20px;
      flex-shrink: 0;
    }
    .role-legend-title {
      text-align: center;
      font-size: 0.78rem;
      font-weight: 700;
      text-transform: uppercase;
      letter-spacing: 0.08em;
      color: var(--muted);
      margin-bottom: 14px;
    }
    .role-legend-grid {
      display: grid;
      grid-template-columns: repeat(8, minmax(0, 1fr));
      gap: 12px 16px;
      width: 100%;
      max-width: none;
      margin: 0;
      padding: 0 4px;
    }
    .role-legend-item {
      display: inline-flex;
      align-items: center;
      justify-content: flex-start;
      gap: 8px;
      min-height: 32px;
      font-size: 0.72rem;
      font-weight: 500;
      color: var(--ink);
      padding: 6px 10px;
      border-radius: 6px;
      border: 1px solid transparent;
      background: transparent;
      cursor: pointer;
      font-family: inherit;
      flex-shrink: 0;
      transition: background 0.15s, border-color 0.15s;
    }
    .role-legend-item .role-icon,
    .role-legend-item .role-icon__svg {
      flex-shrink: 0;
    }
    .role-legend-item:hover {
      background: white;
      border-color: #cbd5e1;
      box-shadow: var(--click-shadow);
    }
    .role-legend-name {
      white-space: nowrap;
      line-height: 1.25;
    }
    @media (max-width: 1199px) {
      .role-legend-grid { grid-template-columns: repeat(4, minmax(0, 1fr)); }
    }
    @media (max-width: 720px) {
      .role-legend { padding: 14px 12px 16px; }
      .role-legend-grid { grid-template-columns: repeat(2, minmax(0, 1fr)); gap: 10px 12px; }
      .role-legend-item { font-size: 0.68rem; padding: 5px 8px; }
      .role-legend .role-icon--legend { --role-icon-size: 26px; min-width: 30px; min-height: 30px; }
    }

    .persona-row .role-icons { min-width: 68px; }
    .persona-table .role-icons { margin-right: 2px; }
    .persona-table td:first-child { white-space: nowrap; }

    .deploy-grid { display: grid; grid-template-columns: 1fr 1fr; gap: 4px; }
    .deploy-col {
      padding: 4px 5px;
      border: 1.5px solid #94a3b8;
      border-radius: 5px;
      background: #ffedd5;
      font-size: 0.52rem;
      cursor: pointer;
      transition: box-shadow 0.15s;
    }
    .deploy-col:hover { box-shadow: var(--click-shadow); }
    .infra-cell .infra-desc { display: block; }
    .deploy-col { display: flex; flex-wrap: wrap; align-items: flex-start; gap: 4px; }
    .deploy-col .role-icons { width: 100%; margin-bottom: 2px; }
    .deploy-col strong {
      display: block;
      width: 100%;
      font-size: 0.48rem;
      text-transform: uppercase;
      color: var(--muted);
      margin-bottom: 2px;
    }

    .mon-persona-grid {
      display: grid;
      grid-template-columns: repeat(3, 1fr);
      gap: 4px;
    }
    .mon-persona-col {
      padding: 8px 10px;
      border: 1.5px solid var(--line);
      border-radius: 6px;
      font-size: 0.58rem;
      cursor: pointer;
      transition: box-shadow 0.15s, transform 0.15s;
      min-height: 96px;
    }
    .mon-persona-col:hover { box-shadow: var(--click-shadow); transform: translateY(-1px); }
    .mon-persona-col--at { background: #fffbeb; border-color: #f59e0b; }
    .mon-persona-col--ds { background: #eef2ff; border-color: #6366f1; }
    .mon-persona-col--mle { background: #ecfdf5; border-color: #059669; }
    .mon-persona-col strong {
      display: flex;
      align-items: center;
      flex-wrap: wrap;
      gap: 4px;
      font-size: 0.46rem;
      text-transform: uppercase;
      letter-spacing: 0.04em;
      margin-bottom: 4px;
      color: var(--ink);
    }
    .mon-persona-col ul { list-style: none; }
    .mon-persona-col li {
      display: flex;
      align-items: center;
      gap: 3px;
      padding: 1px 0;
      font-size: 0.48rem;
      color: var(--muted);
    }
    .mon-persona-col li::before { content: none; }

    .phase-block-label {
      font-size: 0.48rem;
      font-weight: 700;
      text-transform: uppercase;
      color: var(--muted);
      margin-bottom: 3px;
      letter-spacing: 0.05em;
    }

    .gap-bar {
      display: flex;
      align-items: center;
      gap: 12px;
      padding: 8px 16px;
      background: var(--gap);
      border-top: 3px dashed var(--gap-h);
      border-bottom: 3px dashed var(--gap-h);
      cursor: pointer;
      box-shadow: inset 0 1px 0 rgba(185, 28, 28, 0.08);
    }
    .gap-bar:hover { filter: brightness(0.97); }
    .gap-bar .label {
      font-size: 0.68rem;
      font-weight: 700;
      color: var(--gap-h);
      text-transform: uppercase;
      letter-spacing: 0.05em;
      white-space: nowrap;
    }
    .gap-bar .note { font-size: 0.58rem; color: #7f1d1d; font-weight: 600; }

    .personas-section { border-top: 1px solid #e2e8f0; background: #f8fafc; }
    .personas-title {
      text-align: center;
      font-size: 0.72rem;
      font-weight: 700;
      text-transform: uppercase;
      letter-spacing: 0.08em;
      padding: 10px;
      border-bottom: 1.5px solid var(--line);
      color: var(--muted);
    }
    .persona-grid { display: grid; grid-template-columns: repeat(5, 1fr); }
    .persona-col { border-right: 2px solid var(--line); padding: 14px 16px 16px; min-width: 0; }
    .persona-col:last-child { border-right: none; }
    .persona-row {
      display: flex;
      align-items: center;
      gap: 10px;
      margin-bottom: 8px;
      font-size: 0.66rem;
    }
    .persona-abbr { font-weight: 700; min-width: 32px; font-size: 0.68rem; }
    .persona-bar-wrap {
      flex: 1;
      height: 14px;
      background: #e2e8f0;
      border-radius: 3px;
      overflow: hidden;
      border: 1px solid #cbd5e1;
    }
    .persona-bar { height: 100%; border-radius: 2px; background: linear-gradient(90deg, #3b82f6, #6366f1); }
    .persona-bar--gov { background: linear-gradient(90deg, #7c3aed, #a78bfa); }
    .persona-bar--steward { background: linear-gradient(90deg, #0284c7, #38bdf8); }
    .persona-pct {
      font-family: "JetBrains Mono", monospace;
      font-size: 0.58rem;
      font-weight: 500;
      min-width: 36px;
      text-align: right;
      color: var(--muted);
    }

    .infra-band {
      display: grid;
      grid-template-columns: repeat(4, 1fr);
      border-top: 2px solid var(--line);
      font-size: 0.64rem;
    }
    .infra-cell {
      position: relative;
      padding: 12px 16px;
      border-right: 2px solid var(--line);
      background: #e2e8f0;
      cursor: pointer;
      transition: background 0.15s;
    }
    .infra-cell:hover { background: #cbd5e1; }
    .infra-cell:last-child { border-right: none; }
    .infra-fti-badge {
      position: absolute;
      top: 8px;
      right: 10px;
      font-size: 0.52rem;
      font-weight: 700;
      line-height: 1;
      padding: 2px 5px;
      border-radius: 3px;
      border: 1px solid #059669;
      color: #047857;
      background: #ecfdf5;
      letter-spacing: 0.02em;
    }
    .infra-cell strong {
      display: block;
      font-size: 0.56rem;
      text-transform: uppercase;
      letter-spacing: 0.05em;
      color: var(--muted);
      margin-bottom: 3px;
      padding-right: 1.4rem;
    }

    /* Detail panel */
    .detail-backdrop {
      position: fixed;
      inset: 0;
      background: rgba(15, 23, 42, 0.45);
      z-index: 1000;
      opacity: 0;
      visibility: hidden;
      transition: opacity 0.2s, visibility 0.2s;
    }
    .detail-backdrop.is-open { opacity: 1; visibility: visible; }
    .detail-panel {
      position: fixed;
      top: 0;
      right: 0;
      width: min(500px, 94vw);
      height: 100vh;
      background: var(--white);
      border-left: 2.5px solid var(--line);
      z-index: 1001;
      display: flex;
      flex-direction: column;
      transform: translateX(100%);
      transition: transform 0.25s ease;
      box-shadow: -12px 0 40px rgba(15, 23, 42, 0.15);
    }
    .detail-panel.is-open { transform: translateX(0); }
    .detail-header {
      padding: 14px 16px;
      border-bottom: 2px solid var(--line);
      background: #f8fafc;
      flex-shrink: 0;
    }
    .detail-nav {
      display: flex;
      align-items: center;
      gap: 8px;
      margin-bottom: 8px;
      font-size: 0.62rem;
      color: var(--muted);
    }
    .detail-back {
      padding: 4px 10px;
      border: 1.5px solid var(--line);
      border-radius: 6px;
      background: white;
      font-size: 0.62rem;
      font-weight: 600;
      cursor: pointer;
      font-family: inherit;
    }
    .detail-back:hover:not(:disabled) { background: #f1f5f9; }
    .detail-back:disabled { opacity: 0.4; cursor: default; }
    .detail-breadcrumb { flex: 1; overflow: hidden; text-overflow: ellipsis; white-space: nowrap; }
    .detail-close {
      width: 28px;
      height: 28px;
      border: 1.5px solid var(--line);
      border-radius: 6px;
      background: white;
      font-size: 1rem;
      line-height: 1;
      cursor: pointer;
    }
    .detail-close:hover { background: #fee2e2; }
    .detail-title { font-size: 1.1rem; font-weight: 700; letter-spacing: -0.02em; }
    .detail-subtitle { font-size: 0.72rem; color: var(--muted); margin-top: 4px; }
    .detail-badges { display: flex; flex-wrap: wrap; gap: 4px; margin-top: 8px; }
    .detail-badge {
      font-size: 0.56rem;
      font-weight: 600;
      padding: 2px 8px;
      border-radius: 999px;
      border: 1px solid #cbd5e1;
      background: white;
    }
    .detail-badge--gov { border-color: #c4b5fd; background: #faf5ff; color: var(--gov-h); }
    .detail-body {
      flex: 1;
      overflow-y: auto;
      padding: 14px 16px 24px;
      font-size: 0.72rem;
    }
    .detail-section { margin-bottom: 14px; }
    .detail-section h3 {
      font-size: 0.62rem;
      font-weight: 700;
      text-transform: uppercase;
      letter-spacing: 0.06em;
      color: var(--muted);
      margin-bottom: 6px;
      padding-bottom: 4px;
      border-bottom: 1px solid #e2e8f0;
    }
    .detail-section ul { list-style: none; }
    .detail-section li {
      padding: 3px 0 3px 12px;
      position: relative;
      line-height: 1.45;
    }
    .detail-section li::before {
      content: "▸";
      position: absolute;
      left: 0;
      color: var(--muted);
      font-size: 0.55rem;
    }
    .detail-kv { display: grid; gap: 4px; }
    .detail-kv dt { font-weight: 600; color: var(--ink); }
    .detail-kv dd { color: var(--muted); margin: 0 0 6px 0; padding-left: 0; }

    .detail-panel--lane { width: min(580px, 96vw); }
    .lane-prose {
      font-size: 0.72rem;
      line-height: 1.55;
      color: var(--ink);
      margin: 0;
    }
    .lane-prose + .lane-prose { margin-top: 8px; }
    .lane-phase-grid {
      display: grid;
      gap: 6px;
      margin: 0;
      padding: 0;
      list-style: none;
    }
    .lane-phase-item {
      display: grid;
      grid-template-columns: 2.2rem 1fr;
      gap: 8px;
      align-items: start;
      padding: 8px 10px;
      border: 1px solid #e2e8f0;
      border-radius: 6px;
      background: #f8fafc;
      font-size: 0.68rem;
      line-height: 1.4;
    }
    .lane-phase-num {
      font-family: "JetBrains Mono", monospace;
      font-weight: 700;
      font-size: 0.7rem;
      color: var(--muted);
    }
    .lane-phase-name { font-weight: 600; color: var(--ink); }
    .lane-phase-meta { font-size: 0.62rem; color: var(--muted); margin-top: 2px; }
    .lane-io {
      display: grid;
      grid-template-columns: 1fr auto 1fr;
      gap: 8px;
      align-items: stretch;
      font-size: 0.68rem;
    }
    .lane-io-col {
      padding: 10px;
      border-radius: 8px;
      border: 1.5px solid #e2e8f0;
      background: #f8fafc;
    }
    .lane-io-col h4 {
      font-size: 0.58rem;
      font-weight: 700;
      text-transform: uppercase;
      letter-spacing: 0.05em;
      color: var(--muted);
      margin-bottom: 6px;
    }
    .lane-io-col ul { list-style: none; margin: 0; padding: 0; }
    .lane-io-col li { padding: 2px 0; line-height: 1.4; }
    .lane-io-in { border-left: 3px solid #3b82f6; }
    .lane-io-out { border-left: 3px solid #10b981; }
    .lane-io-arrow {
      display: flex;
      align-items: center;
      justify-content: center;
      font-weight: 700;
      color: var(--muted);
      font-size: 1.1rem;
    }
    .persona-table-wrap { overflow-x: auto; margin-top: 4px; }
    .persona-table {
      width: 100%;
      border-collapse: collapse;
      font-size: 0.62rem;
      line-height: 1.35;
    }
    .persona-table th,
    .persona-table td {
      border: 1px solid #e2e8f0;
      padding: 6px 8px;
      text-align: left;
      vertical-align: top;
    }
    .persona-table th {
      background: #f1f5f9;
      font-weight: 700;
      text-transform: uppercase;
      letter-spacing: 0.04em;
      font-size: 0.56rem;
      color: var(--muted);
    }
    .persona-table td:nth-child(2) { font-weight: 600; white-space: nowrap; }
    .lane-gates {
      padding: 10px 12px;
      border-radius: 8px;
      border: 1.5px dashed #94a3b8;
      background: #fffbeb;
      font-size: 0.68rem;
      line-height: 1.5;
    }
    .lane-gates strong { display: block; font-size: 0.58rem; text-transform: uppercase; letter-spacing: 0.05em; color: #92400e; margin-bottom: 4px; }

    .panel-tabs {
      display: flex;
      gap: 4px;
      margin-top: 10px;
      padding: 3px;
      background: #e2e8f0;
      border-radius: 8px;
      border: 1px solid #cbd5e1;
    }
    .panel-tab {
      flex: 1;
      padding: 6px 10px;
      border: none;
      border-radius: 6px;
      background: transparent;
      font-family: inherit;
      font-size: 0.62rem;
      font-weight: 700;
      text-transform: uppercase;
      letter-spacing: 0.04em;
      color: var(--muted);
      cursor: pointer;
      transition: background 0.15s, color 0.15s, box-shadow 0.15s;
    }
    .panel-tab:hover { color: var(--ink); }
    .panel-tab--active {
      background: white;
      color: #92400e;
      box-shadow: 0 1px 3px rgba(15, 23, 42, 0.1);
    }
    .panel-tab--active.panel-tab--view { color: #1e40af; }

    .daps-form-toolbar {
      display: flex;
      flex-wrap: wrap;
      gap: 6px;
      align-items: center;
      padding: 10px 12px;
      margin: -2px -2px 12px;
      background: linear-gradient(135deg, #fffbeb 0%, #fef3c7 100%);
      border: 1.5px solid #d97706;
      border-radius: 10px;
    }
    .daps-form-toolbar label {
      font-size: 0.58rem;
      font-weight: 700;
      text-transform: uppercase;
      letter-spacing: 0.05em;
      color: #92400e;
      width: 100%;
    }
    .daps-form-project {
      flex: 1;
      min-width: 140px;
      padding: 6px 10px;
      border: 1.5px solid #d97706;
      border-radius: 6px;
      font-family: inherit;
      font-size: 0.72rem;
      background: white;
    }
    .daps-form-project:focus { outline: 2px solid #f59e0b; outline-offset: 1px; }
    .daps-form-project.is-invalid { border-color: #dc2626; background: #fef2f2; }
    .daps-form-actions { display: flex; flex-wrap: wrap; gap: 4px; width: 100%; }
    .daps-btn {
      padding: 5px 10px;
      border: 1.5px solid var(--line);
      border-radius: 6px;
      background: white;
      font-family: inherit;
      font-size: 0.6rem;
      font-weight: 600;
      cursor: pointer;
      transition: background 0.15s, border-color 0.15s;
    }
    .daps-btn:hover { background: #f8fafc; }
    .daps-btn--primary {
      background: #fef3c7;
      border-color: #d97706;
      color: #92400e;
    }
    .daps-btn--primary:hover { background: #fde68a; }
    .daps-btn--danger { border-color: #fca5a5; color: #b91c1c; }
    .daps-btn--danger:hover { background: #fef2f2; }
    .daps-save-hint {
      font-size: 0.52rem;
      color: var(--muted);
      width: 100%;
      margin: 0;
    }

    .daps-form-tier {
      border: 1.5px solid #d97706;
      border-radius: 10px;
      overflow: hidden;
      margin-bottom: 12px;
      background: rgba(255, 255, 255, 0.9);
    }
    .daps-form-tier-head {
      font-size: 0.58rem;
      font-weight: 700;
      text-transform: uppercase;
      letter-spacing: 0.07em;
      padding: 6px 12px;
      border-bottom: 1.5px solid #d97706;
      color: #92400e;
      background: #fef3c7;
    }
    .daps-form-tier--decision .daps-form-tier-head { background: #fde68a; }
    .daps-form-tier--analytics .daps-form-tier-head { background: #fcd34d; }
    .daps-form-tier-body { padding: 10px 12px; display: flex; flex-direction: column; gap: 10px; }

    .daps-form-group {
      display: flex;
      flex-direction: column;
      gap: 4px;
      scroll-margin-top: 12px;
      padding: 8px;
      border-radius: 8px;
      border: 1.5px solid transparent;
      transition: border-color 0.2s, background 0.2s;
    }
    .daps-form-group--focus {
      border-color: #f59e0b;
      background: #fffbeb;
    }
    .daps-form-label {
      font-size: 0.64rem;
      font-weight: 700;
      color: #92400e;
      line-height: 1.3;
    }
    .daps-form-hint {
      font-size: 0.56rem;
      color: var(--muted);
      font-style: italic;
      line-height: 1.35;
    }
    .daps-form-input,
    .daps-form-textarea,
    .daps-form-select {
      width: 100%;
      padding: 7px 10px;
      border: 1.5px solid #cbd5e1;
      border-radius: 6px;
      font-family: inherit;
      font-size: 0.72rem;
      line-height: 1.4;
      background: white;
      resize: vertical;
    }
    .daps-form-input:focus,
    .daps-form-textarea:focus,
    .daps-form-select:focus {
      outline: none;
      border-color: #d97706;
      box-shadow: 0 0 0 2px rgba(217, 119, 6, 0.15);
    }
    .daps-form-textarea { min-height: 64px; }

    .daps-predictor-row {
      display: flex;
      gap: 6px;
      align-items: flex-start;
    }
    .daps-predictor-row .daps-form-input { flex: 1; }
    .daps-predictor-remove {
      flex-shrink: 0;
      width: 28px;
      height: 28px;
      padding: 0;
      border: 1.5px solid #fca5a5;
      border-radius: 6px;
      background: white;
      color: #b91c1c;
      font-size: 0.9rem;
      line-height: 1;
      cursor: pointer;
    }
    .daps-predictor-remove:hover { background: #fef2f2; }
    .daps-rel-options {
      display: flex;
      flex-wrap: wrap;
      gap: 6px;
    }
    .daps-rel-option {
      display: flex;
      align-items: center;
      gap: 4px;
      padding: 5px 10px;
      border: 1.5px solid #cbd5e1;
      border-radius: 6px;
      background: white;
      font-size: 0.62rem;
      font-weight: 600;
      cursor: pointer;
      transition: border-color 0.15s, background 0.15s;
    }
    .daps-rel-option:has(input:checked) {
      border-color: #d97706;
      background: #fffbeb;
      color: #92400e;
    }
    .daps-rel-option input { accent-color: #d97706; }
  </style>
</head>
<body>
  <article class="poster" role="application" aria-label="Daistra ML Project Lifecycle">
    <header class="hero">
      <div class="hero-brand">
        <img class="hero-logo" src="assets/daistra-logo-full.png" alt="Daistra Data &amp; AI Strategy" width="723" height="660" decoding="async" />
      </div>
      <div class="hero-content">
        <h1><span class="hero-subject">ML Project Lifecycle</span></h1>
        <p class="tagline">Business → DAPS → FTI (F→T→I) → delivery → operate → improve → retire · 13 phases · MLOps zones A–D</p>
        <div class="meta" aria-label="Scope">
          <span class="pill">Daistra delivery &amp; governance</span>
        </div>
        <div class="hero-actions">
          <a class="hero-seq-btn hero-link-btn" href="ml-lifecycle-executive-layers.html" title="Executive layered stack — static summary">
            <span class="hero-seq-btn__icon" aria-hidden="true">▤</span>
            Executive layers
          </a>
          <a class="hero-seq-btn hero-link-btn" href="ml-lifecycle-mental-model.html" title="Executive mental model — static one-page map">
            <span class="hero-seq-btn__icon" aria-hidden="true">◇</span>
            Mental model
          </a>
          <button type="button" class="hero-seq-btn" id="openSequenceBtn" aria-haspopup="dialog" aria-controls="seqOverlay">
            <span class="hero-seq-btn__icon" aria-hidden="true">⟳</span>
            Sequence flow
          </button>
          <button type="button" class="hero-help-btn" id="posterHelpToggleHero" aria-expanded="false" aria-controls="posterHelpBanner">
            How to use
          </button>
        </div>
      </div>
    </header>

    <section class="lifecycle-stages poster-zone poster-zone--when" aria-label="Lifecycle maturity stages — 13 delivery phases grouped by stage">
      <p class="poster-zone__label"><span class="poster-zone__step" aria-hidden="true">1</span> When — maturity stages</p>
      <div class="lifecycle-stages__head">
        <span class="lifecycle-stages__title">13 delivery phases (0–12)</span>
        <span class="lifecycle-stages__hint">Click a phase number for detail</span>
      </div>
      <div class="lifecycle-stages__track">
        <div class="mat-stage mat-intake" style="--stage-span: 3">
          <div class="mat-stage__label">
            <span class="mat-stage__name">Intake</span>
            <span class="mat-stage__range">phases 0–2</span>
          </div>
          <div class="mat-stage__phases">
            <button type="button" class="mat-phase-chip clickable" data-phase="0" title="Phase 0 — Envision">0</button>
            <button type="button" class="mat-phase-chip clickable" data-phase="1" title="Phase 1 — DAPS">1</button>
            <button type="button" class="mat-phase-chip clickable" data-phase="2" title="Phase 2 — KPI / SLA">2</button>
          </div>
        </div>
        <div class="mat-stage mat-poc" style="--stage-span: 3">
          <div class="mat-stage__label">
            <span class="mat-stage__name">Proof of concept</span>
            <span class="mat-stage__range">phases 3–5</span>
          </div>
          <div class="mat-stage__phases">
            <button type="button" class="mat-phase-chip clickable" data-phase="3" title="Phase 3 — Feasibility">3</button>
            <button type="button" class="mat-phase-chip clickable" data-phase="4" title="Phase 4 — Architecture">4</button>
            <button type="button" class="mat-phase-chip clickable" data-phase="5" title="Phase 5 — EDA">5</button>
          </div>
        </div>
        <div class="mat-stage mat-proto" style="--stage-span: 1">
          <div class="mat-stage__label">
            <span class="mat-stage__name">Prototype</span>
            <span class="mat-stage__range">phase 6</span>
          </div>
          <div class="mat-stage__phases">
            <button type="button" class="mat-phase-chip clickable" data-phase="6" title="Phase 6 — Feature (F)">6</button>
          </div>
        </div>
        <div class="mat-stage mat-pilot" style="--stage-span: 2">
          <div class="mat-stage__label">
            <span class="mat-stage__name">Pilot</span>
            <span class="mat-stage__range">phases 7–8</span>
          </div>
          <div class="mat-stage__phases">
            <button type="button" class="mat-phase-chip clickable" data-phase="7" title="Phase 7 — Training (T)">7</button>
            <button type="button" class="mat-phase-chip clickable" data-phase="8" title="Phase 8 — Inference (I)">8</button>
          </div>
        </div>
        <div class="mat-stage mat-mvp" style="--stage-span: 1">
          <div class="mat-stage__label">
            <span class="mat-stage__name">PRD / MVP</span>
            <span class="mat-stage__range">phase 9</span>
          </div>
          <div class="mat-stage__phases">
            <button type="button" class="mat-phase-chip clickable" data-phase="9" title="Phase 9 — Production deploy">9</button>
          </div>
        </div>
        <div class="mat-stage mat-prod" style="--stage-span: 1">
          <div class="mat-stage__label">
            <span class="mat-stage__name">Production</span>
            <span class="mat-stage__range">phase 10</span>
          </div>
          <div class="mat-stage__phases">
            <button type="button" class="mat-phase-chip clickable" data-phase="10" title="Phase 10 — Integrated &amp; operational">10</button>
          </div>
        </div>
        <div class="mat-stage mat-op" style="--stage-span: 1">
          <div class="mat-stage__label">
            <span class="mat-stage__name">Operate</span>
            <span class="mat-stage__range">phase 11</span>
          </div>
          <div class="mat-stage__phases">
            <button type="button" class="mat-phase-chip clickable" data-phase="11" title="Phase 11 — Monitor &amp; improve">11</button>
          </div>
        </div>
        <div class="mat-stage mat-ret" style="--stage-span: 1">
          <div class="mat-stage__label">
            <span class="mat-stage__name">Retire</span>
            <span class="mat-stage__range">phase 12</span>
          </div>
          <div class="mat-stage__phases">
            <button type="button" class="mat-phase-chip clickable" data-phase="12" title="Phase 12 — Retire &amp; archive">12</button>
          </div>
        </div>
      </div>
    </section>

    <aside class="poster-help-banner" id="posterHelpBanner" role="region" aria-label="How to use this poster" hidden>
      <div class="poster-help-banner__inner">
        <span class="poster-help-banner__icon" aria-hidden="true">?</span>
        <div class="poster-help-banner__content">
          <span class="poster-help-banner__title">How to use this poster</span>
          <p class="poster-help-banner__model">Read top → bottom: <strong>maturity stages</strong> (when) → <strong>five pillars</strong> (who does what) → <strong>roles</strong> (who is who).</p>
          <ul class="poster-help-banner__list">
            <li><strong>Hover</strong> a lane to preview · <strong>Click</strong> to pin focus</li>
            <li><strong>↗</strong> on header opens lane briefing · blocks open the detail panel</li>
            <li><kbd>←</kbd> <kbd>→</kbd> move lanes · <kbd>1</kbd>–<kbd>5</kbd> jump · <kbd>Esc</kbd> clear</li>
          </ul>
        </div>
        <div class="poster-help-banner__actions">
          <button type="button" class="poster-help-banner__dismiss" id="posterHelpDismiss">Got it</button>
        </div>
      </div>
    </aside>

    <button type="button" class="poster-help-fab" id="posterHelpFab" aria-label="How to use this poster" aria-expanded="false" aria-controls="posterHelpBanner" title="How to use">?</button>

    <div class="main-grid">
      <p class="poster-zone__label poster-zone__label--lanes"><span class="poster-zone__step" aria-hidden="true">2</span> Who does what — five delivery pillars</p>
      <section class="phases" aria-label="Five lifecycle pillars">
          <!-- DISCOVER -->
          <div class="pillar pillar--discover" data-pillar="discover">
            <div class="chevron-head clickable" data-pillar-detail="discover" tabindex="0"><span class="chevron-num">1</span><span class="chevron-head__title">Discover &amp; Intake</span></div>
            <div class="gov-strip">
              <span class="gov-touch gov-touch--steward clickable" data-gov="steward-intake" data-gov-roles="DST" tabindex="0">Approval · PII · intake</span>
              <span class="gov-touch clickable" data-gov="gc-intake" data-gov-roles="GC" tabindex="0">GC · Art. 6 risk · intake compliance</span>
            </div>
            <div class="sub-phases">
              <span class="phase-chip clickable" data-phase="0" tabindex="0"><span class="num">0</span>Envision<span class="mat-tag mat-tag--intake">Intake</span></span>
              <span class="phase-chip clickable" data-phase="1" tabindex="0"><span class="num">1</span>DAPS<span class="mat-tag mat-tag--intake">Intake</span></span>
              <span class="phase-chip clickable" data-phase="2" tabindex="0"><span class="num">2</span>KPI / SLA<span class="mat-tag mat-tag--intake">Intake</span></span>
              <span class="phase-chip clickable" data-phase="3" tabindex="0"><span class="num">3</span>Feasibility<span class="mat-tag mat-tag--poc">POC</span></span>
            </div>
            <div class="pillar-body">
              <div class="box">
                <div class="box-title box-title--daps">
                  <span class="box-title__main">DAPS — Data-Analytic Problem Structure (de Mast &amp; Lokkerbol 2024)</span>
                  <span class="daps-flow-legend" aria-hidden="true"><span>③ Analytics</span><span class="daps-flow-legend__arr" aria-hidden="true">↑</span><span>② Decision</span><span class="daps-flow-legend__arr" aria-hidden="true">↑</span><span>① Business value</span></span>
                </div>
                <div class="box-content">
                  <div class="daps-diagram" role="group" aria-label="DAPS diagram: business value, decision framework, data-analytic problem">
                    <div class="daps-tier daps-tier--business">
                      <div class="daps-tier-head">Business value</div>
                      <div class="daps-tier-body">
                        <div class="daps-block clickable" data-daps="0" data-daps-field="organizationKpi" data-daps-label="Organization KPI" tabindex="0">
                          <span class="daps-filled-dot" aria-hidden="true"></span>
                          <span class="daps-filled-badge">filled</span>
                          <span class="daps-block-label">Organization KPI</span>
                          <span class="daps-block-q">How will the project contribute to the organization's goals?</span>
                          <span class="daps-block-meta">phase 0</span>
                        </div>
                        <div class="daps-block clickable" data-daps="0" data-daps-field="operationalKpis" data-daps-label="Operational KPIs" tabindex="0">
                          <span class="daps-filled-dot" aria-hidden="true"></span>
                          <span class="daps-filled-badge">filled</span>
                          <span class="daps-block-label">KPIs (operational)</span>
                          <span class="daps-block-q">Which operational metrics does the organization track?</span>
                          <span class="daps-block-meta">phase 0</span>
                        </div>
                        <div class="daps-block clickable" data-daps="0" data-daps-field="projectKpi" data-daps-label="Project KPI" tabindex="0">
                          <span class="daps-filled-dot" aria-hidden="true"></span>
                          <span class="daps-filled-badge">filled</span>
                          <span class="daps-block-label">Project KPI</span>
                          <span class="daps-block-q">What is the direct benefit of applying the decision framework?</span>
                          <span class="daps-block-meta">phase 0</span>
                        </div>
                      </div>
                    </div>
                    <div class="daps-flow" aria-hidden="true">
                      <span class="daps-flow-label">analytics → decision → business</span>
                      <span class="daps-flow-arrow">↑</span>
                    </div>
                    <div class="daps-tier daps-tier--decision">
                      <div class="daps-tier-head">Decision framework</div>
                      <div class="daps-tier-body">
                        <div class="daps-block clickable" data-daps="1" data-daps-field="decisionsActions" data-daps-label="Decisions / actions" tabindex="0">
                          <span class="daps-filled-dot" aria-hidden="true"></span>
                          <span class="daps-filled-badge">filled</span>
                          <span class="daps-block-label">Decisions &amp; actions</span>
                          <span class="daps-block-q">For what decisions/actions will the model be used?</span>
                          <span class="daps-block-meta">phase 1</span>
                        </div>
                        <div class="daps-block clickable" data-daps="1" data-daps-field="decisionAgent" data-daps-label="Decision agent" tabindex="0">
                          <span class="daps-filled-dot" aria-hidden="true"></span>
                          <span class="daps-filled-badge">filled</span>
                          <span class="daps-block-label">Decision agent</span>
                          <span class="daps-block-q">What agent takes decisions?</span>
                          <span class="daps-block-meta">phase 1</span>
                        </div>
                        <div class="daps-block clickable" data-daps="1" data-daps-field="decisionTiming" data-daps-label="Decision timing" tabindex="0">
                          <span class="daps-filled-dot" aria-hidden="true"></span>
                          <span class="daps-filled-badge">filled</span>
                          <span class="daps-block-label">Decision timing</span>
                          <span class="daps-block-q">When are decisions taken?</span>
                          <span class="daps-block-meta">phase 1</span>
                        </div>
                        <div class="daps-block clickable" data-daps="1" data-daps-field="unitOfAnalysis" data-daps-label="Unit of analysis" tabindex="0">
                          <span class="daps-filled-dot" aria-hidden="true"></span>
                          <span class="daps-filled-badge">filled</span>
                          <span class="daps-block-label">Unit of analysis</span>
                          <span class="daps-block-q">At what level (customer, product, region…) are decisions made?</span>
                          <span class="daps-block-meta">phase 1</span>
                        </div>
                        <div class="daps-block clickable" data-daps="1" data-daps-field="interventionScope" data-daps-label="Intervention scope" tabindex="0">
                          <span class="daps-filled-dot" aria-hidden="true"></span>
                          <span class="daps-filled-badge">filled</span>
                          <span class="daps-block-label">Intervention scope</span>
                          <span class="daps-block-q">What is the scope of intervention?</span>
                          <span class="daps-block-meta">phase 1</span>
                        </div>
                      </div>
                    </div>
                    <div class="daps-flow" aria-hidden="true">
                      <span class="daps-flow-arrow">↑</span>
                    </div>
                    <div class="daps-tier daps-tier--analytics">
                      <div class="daps-tier-head">Data-analytic problem</div>
                      <div class="daps-tier-body">
                        <div class="daps-block clickable" data-daps="2" data-daps-field="targetVariables" data-daps-label="Target variables" tabindex="0">
                          <span class="daps-filled-dot" aria-hidden="true"></span>
                          <span class="daps-filled-badge">filled</span>
                          <span class="daps-block-label">Target variables</span>
                          <span class="daps-block-vars">Y₁ · Y₂</span>
                          <span class="daps-block-q">What will the model predict?</span>
                          <span class="daps-block-meta">phase 2</span>
                        </div>
                        <div class="daps-block clickable" data-daps="2" data-daps-field="predictors" data-daps-label="Predictors / features" tabindex="0">
                          <span class="daps-filled-dot" aria-hidden="true"></span>
                          <span class="daps-filled-badge">filled</span>
                          <span class="daps-block-label">Predictors / features</span>
                          <span class="daps-block-vars">X₁ … X₅</span>
                          <span class="daps-block-q">What are potential predictors, features?</span>
                          <span class="daps-block-meta">phase 2</span>
                        </div>
                        <div class="daps-block clickable" data-daps="2" data-daps-field="relationshipType" data-daps-label="Relationship type" tabindex="0">
                          <span class="daps-filled-dot" aria-hidden="true"></span>
                          <span class="daps-filled-badge">filled</span>
                          <span class="daps-block-label">Relationship type</span>
                          <span class="daps-block-q">Correlational · causal · deductive — what is the type of relationship?</span>
                          <span class="daps-block-meta">phase 2</span>
                        </div>
                      </div>
                    </div>
                  </div>
                </div>
              </div>
              <div class="box">
                <div class="box-title">Process &amp; tasks (P1 intake)</div>
                <div class="box-content">
                  <ul class="tasks" data-task-set="discover.process">
                    <li>Capture opportunity / regulatory need</li>
                    <li>DAPS workshop · portfolio alignment</li>
                    <li>ROI hypothesis · KPI definitions · draft SLA</li>
                    <li>Data landscape sketch · go/no-go to architecture</li>
                  </ul>
                </div>
              </div>
              <div class="box">
                <div class="box-title">Inputs → outputs</div>
                <div class="box-content">
                  <div class="io-pair"><span class="io-in">Opportunity · mandate</span><span class="io-arrow">→</span><span class="io-out">Problem statement · intake brief</span></div>
                  <div class="io-pair"><span class="io-in">Demand signal</span><span class="io-arrow">→</span><span class="io-out">DAPS diagram · registry row</span></div>
                  <div class="io-pair"><span class="io-in">Approved intake</span><span class="io-arrow">→</span><span class="io-out">Business case · application card draft</span></div>
                </div>
              </div>
            </div>
          </div>

          <!-- PLAN -->
          <div class="pillar pillar--plan" data-pillar="plan">
            <div class="chevron-head clickable" data-pillar-detail="plan" tabindex="0"><span class="chevron-num">2</span><span class="chevron-head__title">Plan &amp; Architecture</span></div>
            <div class="gov-strip">
              <span class="gov-touch gov-touch--steward clickable" data-gov="steward-intake" data-gov-roles="DST" tabindex="0">Catalog · lineage approval</span>
              <span class="gov-touch clickable" data-gov="gc-intake" data-gov-roles="GC" tabindex="0">Policy pack recommend · Art. 6</span>
            </div>
            <div class="sub-phases">
              <span class="phase-chip clickable" data-phase="4" tabindex="0"><span class="num">4</span>Architecture<span class="mat-tag mat-tag--poc">POC</span></span>
            </div>
            <div class="pillar-body">
              <div class="box">
                <div class="box-title">Solution / MLOps design (P2 policy)</div>
                <div class="box-content">
                  <div class="flow" data-flow-set="plan.architecture">
                    <span class="flow-node clickable" data-phase="3" data-flow-roles="PM,DS">Feasibility</span>
                    <span class="flow-arr">→</span>
                    <span class="flow-node clickable" data-phase="4" data-flow-roles="SD">AI BOM</span>
                    <span class="flow-arr">→</span>
                    <span class="flow-node clickable" data-phase="4" data-flow-roles="SD">Arch doc</span>
                    <span class="flow-arr">→</span>
                    <span class="flow-node clickable" data-phase="4" data-flow-roles="SD,GC">Policy pack</span>
                    <span class="flow-arr">→</span>
                    <span class="flow-node clickable" data-phase="4" data-flow-roles="SD,MLE">FTI plan</span>
                  </div>
                </div>
              </div>
              <div class="box">
                <div class="box-title">Tasks</div>
                <div class="box-content">
                  <ul class="tasks" data-task-set="plan.tasks">
                    <li>Solution &amp; MLOps architecture</li>
                    <li>Templates · CI/CD skeleton · env strategy</li>
                    <li>Policy pack binding · conformance rules</li>
                  </ul>
                </div>
              </div>
            </div>
          </div>

          <!-- MODEL -->
          <div class="pillar pillar--model" data-pillar="model">
            <div class="chevron-head clickable" data-pillar-detail="model" tabindex="0"><span class="chevron-num">3</span><span class="chevron-head__title">Modelling &amp; FTI Build</span></div>
            <div class="gov-strip">
              <span class="gov-touch gov-touch--steward clickable" data-gov="steward-build" data-gov-roles="DST" tabindex="0">Contract enforcement · data card sign-off</span>
              <span class="gov-touch clickable" data-gov="gc-build" data-gov-roles="GC" tabindex="0">Card reviews · lineage</span>
            </div>
            <div class="sub-phases">
              <span class="phase-chip clickable" data-phase="5" tabindex="0"><span class="num">5</span>EDA<span class="mat-tag mat-tag--poc">POC</span></span>
              <span class="phase-chip clickable" data-phase="6" tabindex="0"><span class="num">6</span>Feature<span class="mat-tag mat-tag--proto">Proto</span></span>
              <span class="phase-chip fti clickable" data-phase="6" tabindex="0">F</span>
              <span class="phase-chip clickable" data-phase="7" tabindex="0"><span class="num">7</span>Training<span class="mat-tag mat-tag--pilot">Pilot</span></span>
              <span class="phase-chip fti clickable" data-phase="7" tabindex="0">T</span>
              <span class="phase-chip clickable" data-phase="8" tabindex="0"><span class="num">8</span>Inference<span class="mat-tag mat-tag--pilot">Pilot</span></span>
              <span class="phase-chip fti clickable" data-phase="8" tabindex="0">I</span>
            </div>
            <div class="pillar-body">
              <div class="box">
                <div class="box-title">EDA → F → T → I (full FTI spine)</div>
                <div class="box-content">
                  <p class="phase-block-label">POC (3–5)</p>
                  <ul class="tasks" data-task-set="model.poc">
                    <li>Feasibility · sample EDA · exploratory quality</li>
                  </ul>
                  <p class="phase-block-label" style="margin-top:6px">Prototype (5–6)</p>
                  <ul class="tasks" data-task-set="model.prototype">
                    <li>Repeatable feature pipeline · contract draft</li>
                  </ul>
                  <p class="phase-block-label" style="margin-top:6px">Pilot (6–8)</p>
                  <ul class="tasks" data-task-set="model.pilot">
                    <li>Bound policy · MLflow runs · promotion candidate</li>
                  </ul>
                  <p class="phase-block-label" style="margin-top:6px">Pilot inference build (8 · I)</p>
                  <ul class="tasks" data-task-set="model.inference">
                    <li>Scoring path · inference pipeline · batch scoring artifact</li>
                  </ul>
                </div>
              </div>
              <div class="box">
                <div class="box-title">FTI artifacts</div>
                <div class="box-content">
                  <div class="io-pair"><span class="io-in">Raw sources</span><span class="io-arrow">→</span><span class="io-out">Data card · contract (F)</span></div>
                  <div class="io-pair"><span class="io-in">Features · eval config</span><span class="io-arrow">→</span><span class="io-out">Model card · MLflow run (T)</span></div>
                  <div class="io-pair"><span class="io-in">Model · policy pack · contract OUT</span><span class="io-arrow">→</span><span class="io-out">Inference pipeline · app card (I)</span></div>
                </div>
              </div>
            </div>
          </div>

          <!-- DEPLOY -->
          <div class="pillar pillar--deploy" data-pillar="deploy">
            <div class="chevron-head clickable" data-pillar-detail="deploy" tabindex="0"><span class="chevron-num">4</span><span class="chevron-head__title">Deployment &amp; Delivery</span></div>
            <div class="gov-strip">
              <span class="gov-touch gov-touch--steward clickable" data-gov="steward-build" data-gov-roles="DST" tabindex="0">Data card final</span>
              <span class="gov-touch clickable" data-gov="gc-build" data-gov-roles="GC" tabindex="0">Gateway conformance · EU AI Act evidence</span>
            </div>
            <div class="sub-phases">
              <span class="phase-chip clickable" data-phase="9" tabindex="0"><span class="num">9</span>PRD deploy<span class="mat-tag mat-tag--prd">PRD</span></span>
            </div>
            <div class="pillar-body">
              <div class="box">
                <div class="box-title">Delivery modes (9) — batch vs realtime</div>
                <div class="box-content deploy-grid">
                  <div class="deploy-col clickable" data-phase="9" data-deploy-roles="MLE,DO"><strong>Batch inference</strong>Trigger FTI pipeline · AZML batch endpoint · schedule</div>
                  <div class="deploy-col clickable" data-phase="9" data-deploy-roles="MLE,SD"><strong>Realtime inference</strong>API · model embedded · online features · gateway</div>
                  <div class="deploy-col clickable" data-phase="9" data-deploy-roles="MLE,GC"><strong>PRR / PRD</strong>CI/CD prod · gateway on · tech docs · conformance FSM</div>
                  <div class="deploy-col clickable" data-phase="9" data-deploy-roles="MLE,PM"><strong>Integration</strong>Consumer sign-off · cards final · deploy manifest</div>
                </div>
              </div>
              <div class="box">
                <div class="box-title">Tasks (P3 gateway · P4 review)</div>
                <div class="box-content">
                  <ul class="tasks" data-task-set="deploy.tasks">
                    <li>Batch inference delivery — trigger FTI pipeline</li>
                    <li>Realtime inference delivery — API · gateway enforce</li>
                    <li>Production Release Decision (phase 9) · integration sign-off</li>
                  </ul>
                </div>
              </div>
            </div>
          </div>

          <!-- OPERATE -->
          <div class="pillar pillar--operate" data-pillar="operate">
            <div class="chevron-head clickable" data-pillar-detail="operate" tabindex="0"><span class="chevron-num">5</span><span class="chevron-head__title">Operate · Improve · Retire</span></div>
            <div class="gov-strip">
              <span class="gov-touch gov-touch--steward clickable" data-gov="steward-retire" data-gov-roles="DST" tabindex="0">Retention · purge · lineage closure</span>
              <span class="gov-touch clickable" data-gov="gc-operate" data-gov-roles="DAIGO,GC" tabindex="0">DAIGO · Art. 72 · audit · retire bundle</span>
            </div>
            <div class="sub-phases">
              <span class="phase-chip clickable" data-phase="10" tabindex="0"><span class="num">10</span>Integrated<span class="mat-tag mat-tag--prod">Prod</span></span>
              <span class="phase-chip clickable" data-phase="11" tabindex="0"><span class="num">11</span>Monitor<span class="mat-tag mat-tag--op">Operate</span></span>
              <span class="phase-chip clickable" data-phase="12" tabindex="0"><span class="num">12</span>Retire<span class="mat-tag mat-tag--ret">Retire</span></span>
            </div>
            <div class="pillar-body">
              <div class="box">
                <div class="box-title">Phase 10 — Production integrated</div>
                <div class="box-content">
                  <ul class="tasks" data-task-set="operate.phase10">
                    <li>Consumer integration · live endpoints</li>
                    <li>SLO dashboard · BI/ops feeds</li>
                    <li>Adoption metrics · binding SLOs</li>
                  </ul>
                </div>
              </div>
              <div class="box">
                <div class="box-title">Phase 11 — Persona-split monitoring (click column)</div>
                <div class="box-content mon-persona-grid">
                  <div class="mon-persona-col mon-persona-col--at clickable" data-monitor="at" tabindex="0">
                    <strong data-role-header="AT,PM">AT · PM — Business</strong>
                    <ul data-task-set="monitor.at">
                      <li>Business KPIs vs targets</li>
                      <li>SLA adherence</li>
                      <li>Cost / FinOps</li>
                      <li>Value reports</li>
                      <li>Adoption metrics</li>
                    </ul>
                  </div>
                  <div class="mon-persona-col mon-persona-col--ds clickable" data-monitor="ds" tabindex="0">
                    <strong data-role-header="DS">DS — Data &amp; model</strong>
                    <ul data-task-set="monitor.ds">
                      <li>Data quality &amp; contracts</li>
                      <li>Feature / schema drift</li>
                      <li>Model performance &amp; drift</li>
                      <li>Retrain triggers</li>
                      <li>Direct observability</li>
                    </ul>
                  </div>
                  <div class="mon-persona-col mon-persona-col--mle clickable" data-monitor="mle" tabindex="0">
                    <strong data-role-header="MLE">MLE — Platform</strong>
                    <ul data-task-set="monitor.mle">
                      <li>Infra (CPU, memory, scale)</li>
                      <li>Pipeline health (F/T/I)</li>
                      <li>Latency / throughput / errors</li>
                      <li>SLO budgets</li>
                      <li>Deploy &amp; rollback health</li>
                    </ul>
                  </div>
                </div>
              </div>
              <div class="box">
                <div class="box-title">Phases 11–12 deliverables (P4 · P5 · P6)</div>
                <div class="box-content">
                  <ul class="tasks" data-task-set="operate.phase1112">
                    <li>Drift monitoring · retrain triggers · incident response</li>
                    <li>Audit export · post-market monitoring (Art. 72)</li>
                    <li>Decommission · archive · gateway off · retire evidence</li>
                  </ul>
                  <p style="margin-top:4px;font-size:0.52rem;color:var(--muted)">↺ loop 11→6/7 · pivot · retire→0 envision</p>
                </div>
              </div>
            </div>
          </div>
      </section>

      <div class="gap-bar clickable" data-gap="handover" data-gap-roles="DS,MLE" tabindex="0">
        <span class="label">⚡ FTI build → delivery gap</span>
        <span class="note">Inference pipeline artifact complete → production delivery modes (batch trigger vs realtime API) · research→FTI pipeline hardening within lane ③</span>
      </div>
    </div>

    <section class="infra-band" aria-label="FTI and delivery pipelines">
      <div class="infra-cell clickable" data-infra="feature" data-infra-roles="DE,AE" tabindex="0"><span class="infra-fti-badge" aria-hidden="true">F</span><strong>Feature pipeline</strong><span class="infra-desc">FTI-F · phases 5–6 · orchestration · transform · contract IN</span></div>
      <div class="infra-cell clickable" data-infra="training" data-infra-roles="DS,MLE" tabindex="0"><span class="infra-fti-badge" aria-hidden="true">T</span><strong>Training pipeline</strong><span class="infra-desc">FTI-T · phase 7 · train · eval · MLflow registration</span></div>
      <div class="infra-cell clickable" data-infra="inference" data-infra-roles="MLE" tabindex="0"><span class="infra-fti-badge" aria-hidden="true">I</span><strong>Inference pipeline</strong><span class="infra-desc">FTI-I · phase 8 · scoring · contract OUT · I build</span></div>
      <div class="infra-cell clickable" data-infra="deploy" data-infra-roles="MLE,DO" tabindex="0"><strong>Deploy pipeline</strong><span class="infra-desc">Phase 9 delivery · CI/CD · batch endpoint · realtime API</span></div>
    </section>

    <section class="personas-section poster-zone poster-zone--who">
      <p class="poster-zone__label"><span class="poster-zone__step" aria-hidden="true">3</span> Who is who — roles &amp; involvement</p>
      <p class="personas-title">Role involvement by pillar (% indicative)</p>
      <div class="persona-grid">
        <div class="persona-col">
          <div class="persona-row"><span class="persona-abbr">AT</span><div class="persona-bar-wrap"><div class="persona-bar" style="width:100%"></div></div><span class="persona-pct">100%</span></div>
          <div class="persona-row"><span class="persona-abbr">PM</span><div class="persona-bar-wrap"><div class="persona-bar" style="width:100%"></div></div><span class="persona-pct">100%</span></div>
          <div class="persona-row"><span class="persona-abbr">DST</span><div class="persona-bar-wrap"><div class="persona-bar persona-bar--steward" style="width:70%"></div></div><span class="persona-pct">70%</span></div>
          <div class="persona-row"><span class="persona-abbr">GC</span><div class="persona-bar-wrap"><div class="persona-bar persona-bar--gov" style="width:80%"></div></div><span class="persona-pct">80%</span></div>
        </div>
        <div class="persona-col">
          <div class="persona-row"><span class="persona-abbr">SD</span><div class="persona-bar-wrap"><div class="persona-bar" style="width:100%"></div></div><span class="persona-pct">100%</span></div>
          <div class="persona-row"><span class="persona-abbr">DST</span><div class="persona-bar-wrap"><div class="persona-bar persona-bar--steward" style="width:60%"></div></div><span class="persona-pct">60%</span></div>
          <div class="persona-row"><span class="persona-abbr">GC</span><div class="persona-bar-wrap"><div class="persona-bar persona-bar--gov" style="width:90%"></div></div><span class="persona-pct">90%</span></div>
        </div>
        <div class="persona-col">
          <div class="persona-row"><span class="persona-abbr">DS</span><div class="persona-bar-wrap"><div class="persona-bar" style="width:100%"></div></div><span class="persona-pct">100%</span></div>
          <div class="persona-row"><span class="persona-abbr">DE</span><div class="persona-bar-wrap"><div class="persona-bar" style="width:90%"></div></div><span class="persona-pct">90%</span></div>
          <div class="persona-row"><span class="persona-abbr">DST</span><div class="persona-bar-wrap"><div class="persona-bar persona-bar--steward" style="width:85%"></div></div><span class="persona-pct">85%</span></div>
          <div class="persona-row"><span class="persona-abbr">GC</span><div class="persona-bar-wrap"><div class="persona-bar persona-bar--gov" style="width:70%"></div></div><span class="persona-pct">70%</span></div>
        </div>
        <div class="persona-col">
          <div class="persona-row"><span class="persona-abbr">MLE</span><div class="persona-bar-wrap"><div class="persona-bar" style="width:100%"></div></div><span class="persona-pct">100%</span></div>
          <div class="persona-row"><span class="persona-abbr">GC</span><div class="persona-bar-wrap"><div class="persona-bar persona-bar--gov" style="width:90%"></div></div><span class="persona-pct">90%</span></div>
        </div>
        <div class="persona-col">
          <div class="persona-row"><span class="persona-abbr">MLE</span><div class="persona-bar-wrap"><div class="persona-bar" style="width:100%"></div></div><span class="persona-pct">100%</span></div>
          <div class="persona-row"><span class="persona-abbr">AT</span><div class="persona-bar-wrap"><div class="persona-bar" style="width:80%"></div></div><span class="persona-pct">80%</span></div>
          <div class="persona-row"><span class="persona-abbr">DST</span><div class="persona-bar-wrap"><div class="persona-bar persona-bar--steward" style="width:75%"></div></div><span class="persona-pct">75%</span></div>
          <div class="persona-row"><span class="persona-abbr">GC</span><div class="persona-bar-wrap"><div class="persona-bar persona-bar--gov" style="width:100%"></div></div><span class="persona-pct">100%</span></div>
        </div>
      </div>
    </section>

    <section class="role-legend" aria-label="Persona role legend">
      <p class="role-legend-title">Persona roles · hover for RACI · click for description</p>
      <div id="roleLegendGrid" class="role-legend-grid"></div>
    </section>

  </article>


  <div class="seq-overlay" id="seqOverlay" role="dialog" aria-modal="true" aria-labelledby="seqTitle" aria-hidden="true">
    <div class="seq-dialog">
      <header class="seq-header">
        <div>
          <h2 id="seqTitle">Daistra | ML Project Lifecycle</h2>
          <p class="seq-header-sub">Same mental model as the poster: five pillars (above) · phase spine 0→12 · click a phase for detail</p>
        </div>
        <button type="button" class="seq-close" id="seqClose" aria-label="Close sequence flow">×</button>
      </header>
      <div class="seq-body">
        <section class="seq-section" aria-label="Five swimlanes">
          <p class="seq-section-title">Five swimlanes (poster columns)</p>
          <div class="seq-lanes">
            <div class="seq-lane seq-lane--discover"><span class="seq-lane-num">1</span><span class="seq-lane__name">Discover &amp; Intake</span><span class="seq-lane-phases">phases 0–3 · MLOps A</span></div>
            <div class="seq-lane seq-lane--plan"><span class="seq-lane-num">2</span><span class="seq-lane__name">Plan &amp; Architecture</span><span class="seq-lane-phases">phase 4 · MLOps A</span></div>
            <div class="seq-lane seq-lane--model"><span class="seq-lane-num">3</span><span class="seq-lane__name">Modelling &amp; FTI Build</span><span class="seq-lane-phases">phases 5–8 · F→T→I</span></div>
            <div class="seq-lane seq-lane--deploy"><span class="seq-lane-num">4</span><span class="seq-lane__name">Deployment &amp; Delivery</span><span class="seq-lane-phases">phase 9 · batch vs realtime</span></div>
            <div class="seq-lane seq-lane--operate"><span class="seq-lane-num">5</span><span class="seq-lane__name">Operate · Improve · Retire</span><span class="seq-lane-phases">phases 10–12</span></div>
          </div>
        </section>
        <section class="seq-section" aria-label="Phase spine">
          <p class="seq-section-title">Phase spine (0 → 12) · click a phase</p>
          <div class="seq-spine-wrap">
            <div class="seq-spine" id="seqSpine"></div>
          </div>
        </section>
        <section class="seq-section" aria-label="FTI pipelines">
          <p class="seq-section-title">FTI + deploy pipelines</p>
          <div class="seq-pipelines">
            <div class="seq-pipe seq-pipe--f"><strong>Feature pipeline · FTI-F</strong>Phases 5–6 · orchestration · contract IN</div>
            <div class="seq-pipe seq-pipe--t"><strong>Training pipeline · FTI-T</strong>Phase 7 · train · eval · MLflow</div>
            <div class="seq-pipe seq-pipe--i"><strong>Inference pipeline · FTI-I</strong>Phase 8 · scoring · contract OUT · I build</div>
            <div class="seq-pipe seq-pipe--d"><strong>Deploy pipeline</strong>Phase 9 · CI/CD · batch endpoint · realtime API</div>
          </div>
          <div class="seq-gap-bar">⚡ FTI build → delivery gap · phase 8 (I artifact) → phase 9 (production delivery modes)</div>
        </section>
        <section class="seq-section" aria-label="Governance thread">
          <p class="seq-section-title">Governance thread (always on)</p>
          <div class="seq-gov-thread">
            <div class="seq-gov-seg seq-gov-seg--dst"><strong>DST</strong> Intake · PII · contracts · retention</div>
            <div class="seq-gov-seg seq-gov-seg--gc"><strong>GC</strong> Policy · cards · gateway · EU AI Act</div>
            <div class="seq-gov-seg seq-gov-seg--daigo"><strong>DAIGO</strong> Audit · Art. 72 · archive · retire</div>
          </div>
        </section>
        <section class="seq-section" aria-label="Improvement loops">
          <p class="seq-section-title">Improvement loops &amp; handoffs</p>
          <div class="seq-loops">
            <div class="seq-loop-box">
              <strong>Forward spine</strong>
              <div class="seq-loop-item"><span class="seq-loop-arrow">→</span> DAPS → architecture → EDA → F → T → I → PRD → integrated → monitor</div>
              <div class="seq-loop-item"><span class="seq-loop-arrow">→</span> AT/PM own value · DS/MLE own FTI · GC/DST gate artifacts</div>
            </div>
            <div class="seq-loop-box">
              <strong>Feedback loops</strong>
              <div class="seq-loop-item"><span class="seq-loop-arrow">↺</span> Phase 11 → 6/7 · drift · retrain · new features</div>
              <div class="seq-loop-item"><span class="seq-loop-arrow">↺</span> Phase 11 → 0 · pivot · new use case</div>
              <div class="seq-loop-item"><span class="seq-loop-arrow">■</span> Phase 12 · retire closed · gateway off · archive</div>
            </div>
          </div>
        </section>
        <div class="seq-legend" aria-label="Lifecycle maturity stages">
          <span class="seq-legend__stage seq-legend__stage--intake"><strong>Intake</strong> 0–2</span>
          <span class="seq-legend__stage seq-legend__stage--poc"><strong>POC</strong> 3–5</span>
          <span class="seq-legend__stage seq-legend__stage--proto"><strong>Prototype</strong> 6</span>
          <span class="seq-legend__stage seq-legend__stage--pilot"><strong>Pilot</strong> 7–8</span>
          <span class="seq-legend__stage seq-legend__stage--prd"><strong>PRD / MVP</strong> 9</span>
          <span class="seq-legend__stage seq-legend__stage--prod"><strong>Production</strong> 10</span>
          <span class="seq-legend__stage seq-legend__stage--op"><strong>Operate</strong> 11</span>
          <span class="seq-legend__stage seq-legend__stage--ret"><strong>Retire</strong> 12</span>
        </div>
      </div>
    </div>
  </div>

  <div class="detail-backdrop" id="detailBackdrop" aria-hidden="true"></div>
  <aside class="detail-panel" id="detailPanel" role="dialog" aria-modal="true" aria-labelledby="detailTitle" aria-hidden="true">
    <header class="detail-header">
      <div class="detail-nav">
        <button type="button" class="detail-back" id="detailBack" disabled aria-label="Go back">← Back</button>
        <span class="detail-breadcrumb" id="detailBreadcrumb">Poster</span>
        <button type="button" class="detail-close" id="detailClose" aria-label="Close panel">×</button>
      </div>
      <h2 class="detail-title" id="detailTitle">Detail</h2>
      <p class="detail-subtitle" id="detailSubtitle"></p>
      <div class="detail-badges" id="detailBadges"></div>
      <div class="panel-tabs" id="detailTabs" hidden role="tablist" aria-label="Panel view mode"></div>
    </header>
    <div class="detail-body" id="detailBody"></div>
  </aside>

  <script>
(function () {
  "use strict";

  const PROCESSES = {
    P1: "Intake — demand, DAPS, feasibility",
    P2: "Policy — pack binding, conformance rules",
    P3: "Gateway — pilot/prod deploy, enforce",
    P4: "Review — PRR/PRD, drift, human review",
    P5: "Incident — containment, remediation",
    P6: "Retire — decommission, archive, gateway off"
  };

  const ROLES = {
    BS: { abbr: "BS", name: "Business Sponsor", desc: "Funding, mandate, sponsor sign-off on intake and retire." },
    AT: { abbr: "AT", name: "Analytics Translator", desc: "Business–analytics bridge; DAPS workshops and KPI framing." },
    PM: { abbr: "PM", name: "Product Manager", desc: "Registry, intake thread, portfolio and PRD accountability." },
    DS: { abbr: "DS", name: "Data Scientist", desc: "EDA, features, experiments, drift analysis and retrain." },
    DE: { abbr: "DE", name: "Data Engineer", desc: "Landing zones, orchestration, batch/stream pipelines." },
    AE: { abbr: "AE", name: "Analytics Engineer", desc: "Curated models, dbt/SQL CI, transform layers." },
    MLE: { abbr: "ML", name: "ML Engineer", desc: "Train, deploy, monitor, FTI pipelines and gateway wiring." },
    ML: { abbr: "ML", name: "ML Engineer", desc: "Train, deploy, monitor, FTI pipelines and gateway wiring." },
    SD: { abbr: "SD", name: "Solution Designer", desc: "Solution and MLOps architecture, integration patterns." },
    SA: { abbr: "SA", name: "Solution Architect", desc: "Enterprise blueprint, platform standards and templates." },
    SE: { abbr: "SE", name: "Software Engineer", desc: "Application services, APIs and consumer integration." },
    DO: { abbr: "DO", name: "DevOps Engineer", desc: "Runtime, CI/CD, environments, probes and SLO plumbing." },
    DA: { abbr: "DA", name: "Data Analyst", desc: "BI consumption, Snowflake/ops feeds and reporting." },
    DC: { abbr: "DC", name: "Data Consultant", desc: "Data documentation and metadata quality on cards." },
    GC: { abbr: "GC", name: "Governance Chief", desc: "Policy packs, card reviews, gateway conformance, audit." },
    DST: { abbr: "DST", name: "Data Steward", desc: "Catalog, contracts, PII/masking, retention and lineage." },
    DAIGO: { abbr: "DG", name: "Data & AI Governance Officer", desc: "Combined data/AI governance; Art. 72, audit export, retire sign-off." }
  };

  const LEGEND_ORDER = ["BS", "AT", "PM", "DS", "DE", "AE", "MLE", "SD", "SA", "SE", "DO", "DA", "DC", "GC", "DST", "DAIGO"];

  const ROLE_SYMBOLS = {
    BS: '<rect x="1" y="2" width="8" height="10" rx="1" fill="none" stroke="#0c1222" stroke-width="1.2"/><path d="M3 5h4M3 7h4M3 9h2" stroke="#0c1222" stroke-width="1"/>',
    AT: '<path d="M1 8h4M9 8h4M5 4v8" stroke="#0c1222" stroke-width="1.2"/><circle cx="1" cy="8" r="1.2" fill="#0c1222"/><circle cx="13" cy="8" r="1.2" fill="#0c1222"/>',
    PM: '<rect x="2" y="2" width="9" height="11" rx="1" fill="none" stroke="#0c1222" stroke-width="1.2"/><path d="M4 5h5M4 7h5M4 9h3" stroke="#0c1222" stroke-width="1"/>',
    DS: '<path d="M4 2v2M10 2v2M3 4h8l-1 9H4L3 4z" fill="none" stroke="#0c1222" stroke-width="1.2"/><path d="M5 7h4" stroke="#0c1222"/>',
    DE: '<path d="M2 11l3-6 2 3 3-7 2 10" fill="none" stroke="#0c1222" stroke-width="1.2" stroke-linecap="round"/><circle cx="11" cy="3" r="2" fill="none" stroke="#0c1222" stroke-width="1"/>',
    AE: '<path d="M1 11V5l6-3 6 3v6" fill="none" stroke="#0c1222" stroke-width="1.2"/><path d="M4 8h6M4 10h4" stroke="#0c1222" stroke-width="1"/>',
    MLE: '<rect x="1" y="3" width="12" height="3" rx="0.5" fill="#0c1222"/><rect x="2" y="7" width="10" height="2.5" rx="0.5" fill="#0c1222" opacity="0.75"/><rect x="3" y="10.5" width="8" height="2" rx="0.5" fill="#0c1222" opacity="0.5"/>',
    ML: '<rect x="1" y="3" width="12" height="3" rx="0.5" fill="#0c1222"/><rect x="2" y="7" width="10" height="2.5" rx="0.5" fill="#0c1222" opacity="0.75"/><rect x="3" y="10.5" width="8" height="2" rx="0.5" fill="#0c1222" opacity="0.5"/>',
    SD: '<rect x="1" y="1" width="12" height="12" rx="1" fill="none" stroke="#0c1222" stroke-width="1.2"/><path d="M1 5h12M1 9h12M5 1v12M9 1v12" stroke="#0c1222" stroke-width="0.8" opacity="0.6"/>',
    SA: '<rect x="1" y="1" width="12" height="12" rx="1" fill="none" stroke="#0c1222" stroke-width="1.2"/><path d="M1 5h12M1 9h12M5 1v12M9 1v12" stroke="#0c1222" stroke-width="0.8" opacity="0.6"/>',
    SE: '<text x="1" y="11" font-family="JetBrains Mono, monospace" font-size="9" font-weight="700" fill="#0c1222">{ }</text>',
    DO: '<circle cx="7" cy="7" r="5.5" fill="none" stroke="#0c1222" stroke-width="1.2"/><path d="M7 1.5v2M7 10.5v2M1.5 7h2M10.5 7h2" stroke="#0c1222" stroke-width="1"/>',
    DA: '<rect x="2" y="8" width="2.5" height="4" fill="#0c1222"/><rect x="5.5" y="5" width="2.5" height="7" fill="#0c1222"/><rect x="9" y="3" width="2.5" height="9" fill="#0c1222"/>',
    DC: '<rect x="1" y="2" width="8" height="10" rx="1" fill="none" stroke="#0c1222" stroke-width="1.2"/><path d="M9 9l4 4" stroke="#0c1222" stroke-width="1.2"/>',
    GC: '<path d="M7 1L2 3v4c0 3 2.2 5.8 5 6.5 2.8-.7 5-3.5 5-6.5V3L7 1z" fill="none" stroke="#0c1222" stroke-width="1.2"/><path d="M5 7l1.5 1.5L9.5 5.5" stroke="#0c1222" stroke-width="1.2" fill="none"/>',
    DST: '<ellipse cx="7" cy="4" rx="5" ry="2" fill="none" stroke="#0c1222" stroke-width="1.2"/><path d="M2 4v6c0 1.1 2.2 2 5 2s5-.9 5-2V4" fill="none" stroke="#0c1222" stroke-width="1.2"/>',
    DAIGO: '<path d="M7 1L2 3v4c0 2.5 1.8 4.8 4 5.5V13H8v-1.5" fill="none" stroke="#0c1222" stroke-width="1.1"/><circle cx="10.5" cy="10.5" r="2.5" fill="none" stroke="#0c1222" stroke-width="1"/>'
  };

  function escapeAttr(str) {
    return String(str ?? "").replace(/&/g, "&amp;").replace(/"/g, "&quot;").replace(/</g, "&lt;").replace(/>/g, "&gt;");
  }

  function resolveRoleId(id) {
    if (!id) return null;
    const key = String(id).trim().toUpperCase();
    if (key === "ML") return "MLE";
    return ROLES[key] ? key : null;
  }

  function parseRoles(spec) {
    if (!spec) return [];
    if (Array.isArray(spec)) return spec;
    return String(spec).split(/[,·]/).map((s) => s.trim()).filter(Boolean).map((id) => ({ id: resolveRoleId(id) || id }));
  }

  function rolePersonSvg() {
    return '<circle cx="5" cy="3.8" r="2.3" fill="#0c1222"/><path d="M1.4 10.4c0-1.9 1.6-3.3 3.6-3.3s3.6 1.4 3.6 3.3V18H1.4V10.4z" fill="#0c1222"/>';
  }

  function renderRoleIcon(roleId, letter, sizeClass) {
    const resolved = resolveRoleId(roleId);
    const role = ROLES[resolved];
    if (!role) return "";
    const title = letter ? `${role.name} (${letter})` : role.name;
    const abbr = role.abbr;
    const symbol = ROLE_SYMBOLS[resolved] || ROLE_SYMBOLS.MLE;
    const badgeW = abbr.length > 2 ? 22 : 18;
    const badgeX = 11;
    const textX = badgeX + badgeW / 2;
    const symX = badgeX + badgeW + 2;
    const size = sizeClass ? ` role-icon--${sizeClass}` : "";
    return `<span class="role-icon${size}" role="img" aria-label="${escapeAttr(title)}" title="${escapeAttr(title)}"><svg class="role-icon__svg" viewBox="0 0 48 22" xmlns="http://www.w3.org/2000/svg" aria-hidden="true">${rolePersonSvg()}<rect x="${badgeX}" y="6" width="${badgeW}" height="10" rx="1.5" fill="#fff" stroke="#0c1222" stroke-width="1.2"/><text x="${textX}" y="12.8" text-anchor="middle" font-family="DM Sans, system-ui, sans-serif" font-size="${abbr.length > 2 ? 4.8 : 5.6}" font-weight="700" fill="#0c1222">${abbr}</text><g transform="translate(${symX}, 4) scale(0.85)">${symbol}</g></svg></span>`;
  }

  function renderRoleIcons(roles, sizeClass) {
    if (!roles || !roles.length) return "";
    return `<span class="role-icons">${roles.map((r) => {
      if (typeof r === "string") return renderRoleIcon(r, "", sizeClass);
      return renderRoleIcon(r.id || r.role, r.letter || "", sizeClass);
    }).join("")}</span>`;
  }

  function normalizeTask(task) {
    if (typeof task === "string") return { text: task, roles: [] };
    return task;
  }

  function renderTaskLi(task) {
    const t = normalizeTask(task);
    return `<li>${renderRoleIcons(t.roles)}<span class="task-text">${t.text}</span></li>`;
  }

  function renderTaskList(tasks) {
    if (!tasks || !tasks.length) return "";
    return tasks.map(renderTaskLi).join("");
  }

  function extractPersonaId(personaStr) {
    if (!personaStr) return null;
    if (personaStr.startsWith("MLE") || personaStr.startsWith("ML ")) return "MLE";
    if (personaStr.startsWith("AI-Eng")) return "MLE";
    if (personaStr.startsWith("DAIGO") || personaStr.includes("Governance Officer")) return "DAIGO";
    const m = personaStr.match(/^([A-Z]{2,5})/);
    return m ? resolveRoleId(m[1]) : null;
  }

  const PHASES = {
    0: {
      name: "Envision",
      maturity: "Intake",
      stage: "intake",
      zone: "A",
      process: ["P1"],
      deliveryRoles: "AT · BS",
      platform: "PM · GC",
      raci: "AT/PM A/R · BS A · GC C",
      tasks: ["Capture opportunity / regulatory need", "Problem statement · sponsor mandate", "Provisional Art. 6 risk scan"],
      inputs: ["Business opportunity", "Regulatory need"],
      outputs: ["Problem statement", "Intake brief", "AISystem draft"],
      artifacts: ["AISystem (draft)", "intake brief", "risk badge"],
      gov: ["GC: provisional Art. 6 category", "Data Steward: data governance horizon"]
    },
    1: {
      name: "DAPS",
      maturity: "Intake",
      stage: "intake",
      zone: "A",
      process: ["P1"],
      deliveryRoles: "AT · BS",
      platform: "PM · GC",
      raci: "AT/PM A/R · GC C · MLE I",
      tasks: ["DAPS workshop", "Portfolio alignment", "Registry request"],
      inputs: ["Demand signal", "Strategy context"],
      outputs: ["DAPS diagram", "Registry row"],
      artifacts: ["DAPS (optional)", "registry row"],
      gov: ["GC: intake compliance", "DST: catalog alignment"]
    },
    2: {
      name: "Use case / KPI / SLA",
      maturity: "Intake → POC",
      stage: "intake",
      zone: "A",
      process: ["P1"],
      deliveryRoles: "AT · BS · DS",
      platform: "PM · GC · DS",
      raci: "PM A/R · BS A · DS C · GC C",
      tasks: ["ROI hypothesis", "KPI definitions", "Draft SLA", "Application card draft"],
      inputs: ["Approved intake", "Finance targets"],
      outputs: ["Business case", "project.kpis", "Draft SLA"],
      artifacts: ["Application card (draft)"],
      gov: ["GC: policy pack recommendation", "DST: PII / masking requirements"]
    },
    3: {
      name: "Feasibility",
      maturity: "POC",
      stage: "poc",
      zone: "A",
      process: ["P1", "P2"],
      deliveryRoles: "DS · AT",
      platform: "PM · DS · GC",
      raci: "DS C · PM A · GC C",
      tasks: ["Data landscape", "Go/no-go", "FTI plan stub", "Sample EDA scope"],
      inputs: ["Use case sketch", "Data landscape sketch"],
      outputs: ["Feasibility report", "Risk category", "Lineage stub"],
      artifacts: ["Feasibility report", "lineage stub"],
      gov: ["DST: data approval · DPIA inputs", "GC: risk category confirmation"]
    },
    4: {
      name: "Architecture",
      maturity: "POC",
      stage: "poc",
      zone: "A",
      process: ["P2"],
      deliveryRoles: "SD · MLE",
      platform: "MLE · GC · PM",
      raci: "SD A/R · GC C · PM I",
      tasks: ["Solution / MLOps architecture", "AI BOM", "Policy pack binding", "FTI plan"],
      inputs: ["Feasibility", "AI BOM draft"],
      outputs: ["Architecture doc", "Policy pack", "FTI plan"],
      artifacts: ["AI BOM", "architecture doc", "policy pack"],
      gov: ["GC: conformance rules", "DST: lineage / catalog approval"]
    },
    5: {
      name: "EDA",
      maturity: "POC · Prototype",
      stage: "poc",
      zone: "B",
      process: [],
      deliveryRoles: "DE · AE · DS",
      platform: "DS · GC",
      raci: "DE R · AE R · DS A/R · GC C",
      tasks: ["Profiling", "Quality rules", "DPIA inputs", "Data card draft"],
      inputs: ["Raw sources", "Landing zones"],
      outputs: ["Quality report", "Lineage edges"],
      artifacts: ["Data card (draft)", "lineage edges"],
      gov: ["DST: masking · PII handling · data policies", "GC: data card review"]
    },
    6: {
      name: "Feature (F)",
      maturity: "Prototype · Pilot",
      stage: "poc → pilot",
      zone: "B · FTI-F",
      process: [],
      deliveryRoles: "DE · AE · DS · DC",
      platform: "DS · GC",
      raci: "DE R · AE R · DS A/R · DC C",
      tasks: ["Repeatable feature pipeline", "Data contracts", "Feature store publish"],
      inputs: ["Curated tables", "Batch/stream paths"],
      outputs: ["Data card", "Data contract", "Feature publish"],
      artifacts: ["Data card", "data contract", "run-*-feature-*"],
      gov: ["DST: contract enforcement · sign-off", "GC: lineage update"]
    },
    7: {
      name: "Training (T)",
      maturity: "Pilot",
      stage: "pilot",
      zone: "C · FTI-T",
      process: [],
      deliveryRoles: "DS · MLE",
      platform: "DS · MLE · GC",
      raci: "DS A/R · MLE R · GC C",
      tasks: ["Train/eval", "MLflow runs", "Promotion candidate", "Handover prep"],
      inputs: ["Features", "Eval config"],
      outputs: ["Model card", "MLflow run", "Metrics"],
      artifacts: ["Model card", "MLflow", "run-*-train-*"],
      gov: ["GC: eval evidence · model card review"]
    },
    8: {
      name: "Inference (I)",
      maturity: "Pilot",
      stage: "pilot",
      zone: "C · D transition · FTI-I",
      process: ["P2 (artifact conformance)"],
      deliveryRoles: "MLE · DS",
      platform: "MLE · GC",
      raci: "MLE A/R · DS C · GC C",
      tasks: ["Scoring path design", "Inference pipeline (batch/online)", "Batch scoring artifact", "Application card (inference)", "Gateway config prep"],
      inputs: ["Promotion candidate", "Model card", "Policy pack", "Contract OUT spec"],
      outputs: ["Inference pipeline artifact", "Batch scoring artifact", "Application card (inference)", "Gateway config draft"],
      artifacts: ["run-*-inference-*", "application card (inference)", "gateway config draft"],
      gov: ["GC: inference card review · gateway prep", "DST: contract OUT validation"]
    },
    9: {
      name: "Production deploy",
      maturity: "MVP / PRD",
      stage: "production",
      zone: "D",
      process: ["P3", "P4"],
      deliveryRoles: "MLE · SD",
      platform: "MLE · GC · PM",
      raci: "MLE A/R · GC C · PM A",
      tasks: ["CI/CD prod deploy", "Batch inference trigger · AZML batch endpoint", "Realtime inference API · gateway on", "PRR/PRD gate · tech docs · cards final"],
      inputs: ["Inference pipeline artifact", "Gateway config draft", "Integration targets"],
      outputs: ["Prod deploy (batch and/or realtime)", "Gateway enabled", "Decision traces", "Cards final"],
      artifacts: ["Deploy record", "cards final", "tech docs"],
      gov: ["GC: PRD sign-off · EU AI Act evidence", "DST: data card final"]
    },
    10: {
      name: "Integrated & operational",
      maturity: "Production (integrated)",
      stage: "production → operate",
      zone: "D",
      process: ["P3"],
      deliveryRoles: "MLE · DA · BS",
      platform: "MLE · PM · DA",
      raci: "MLE R · PM A · DA I",
      tasks: ["Consumer integration", "Live endpoints", "SLO dashboard", "BI/ops feeds", "Adoption metrics"],
      inputs: ["Signed integrations", "SLO targets"],
      outputs: ["Live endpoints", "Adoption metrics"],
      artifacts: ["Integration evidence", "SLO dashboard"],
      gov: ["PM: adoption tracking", "GC: SLO compliance visibility"]
    },
    11: {
      name: "Monitor / improve",
      maturity: "Operate",
      stage: "operate",
      zone: "D · FTI-I",
      process: ["P4", "P5"],
      deliveryRoles: "MLE · DS · GC",
      platform: "MLE · GC · PM · DS",
      raci: "MLE A/R · GC A/R · DS R · PM I",
      tasks: ["Drift monitoring", "Retrain triggers", "Incident response", "Audit export", "Value reports", "Post-market monitoring (Art. 72)"],
      inputs: ["Metrics", "Traces", "Drift", "Incidents"],
      outputs: ["Monitoring", "Retrain plan", "Audit events", "Value reports"],
      artifacts: ["model_runs", "incidents", "reviews", "audit"],
      gov: ["DAIGO (GC): audit export · Art. 72", "DST: data/model observability policies"]
    },
    12: {
      name: "Retire",
      maturity: "Retire",
      stage: "retired",
      zone: "D (closed)",
      process: ["P6"],
      deliveryRoles: "PM · MLE · BS",
      platform: "PM · GC · MLE",
      raci: "PM R · GC A/R · MLE C",
      tasks: ["Undeploy", "Archive", "Gateway off", "Retention / purge", "Retire evidence bundle"],
      inputs: ["Retire request", "Evidence bundle"],
      outputs: ["lifecycleStage=retired", "Archive export"],
      artifacts: ["Retire record", "archive export"],
      gov: ["DAIGO: archive sign-off · retention", "DST: lineage closure · purge"]
    }
  };

  const MONITORING = {
    at: {
      title: "Business monitoring — AT · PM",
      subtitle: "Phase 11 · value & adoption lens",
      phase: 11,
      items: [
        "Business KPIs vs targets (RMSE, revenue lift, etc.)",
        "SLA adherence — application, data, and model SLAs",
        "Cost / FinOps view — infra and inference spend",
        "Value realization reports for sponsors",
        "Adoption metrics — consumer usage, BI uptake"
      ],
      artifacts: ["Value reports", "SLO dashboard (business view)", "project.kpis tracking"],
      raci: "PM A · AT R · BS informed"
    },
    ds: {
      title: "Data & model monitoring — DS",
      subtitle: "Phase 11 · scientific observability",
      phase: 11,
      items: [
        "Data quality & contract compliance",
        "Feature drift / schema drift detection",
        "Model performance & drift vs baseline",
        "Retrain triggers & eval evidence",
        "Direct data/model observability (stores, MLflow)"
      ],
      artifacts: ["model_runs", "drift alerts", "retrain proposals"],
      raci: "DS R · MLE C · GC C on bias/fairness"
    },
    mle: {
      title: "Platform monitoring — MLE",
      subtitle: "Phase 11 · engineering & SLO lens",
      phase: 11,
      items: [
        "Infrastructure — CPU, memory, storage, autoscale",
        "Pipeline health — feature, train, inference runs",
        "App latency / throughput / error rate",
        "SLO / performance budgets vs targets",
        "Deploy & rollback health · gateway traces"
      ],
      artifacts: ["FTI run logs", "gateway traces", "incidents", "deploy health"],
      raci: "MLE A/R · GC A/R on incidents"
    }
  };

  const GOVERNANCE = {
    early: {
      title: "Governance — Discover & Intake (0–4)",
      phases: "0–4",
      steward: ["Data approval · masking · PII", "DPIA inputs", "Catalog / lineage approval", "Data governance policies"],
      gc: ["Provisional Art. 6 risk", "Policy pack recommendation", "Intake compliance", "AISystem registration"]
    },
    "steward-intake": {
      title: "Data Steward — Intake (0–4)",
      phases: "0–4",
      steward: ["Approve data sources for feasibility", "PII classification · masking rules", "DPIA inputs to privacy office", "Catalog & lineage registration"],
      gc: ["Consulted on sensitive data categories"]
    },
    "gc-intake": {
      title: "AI Governance (GC) — Intake (0–4)",
      phases: "0–4",
      steward: ["Data landscape validation"],
      gc: ["Art. 6 provisional risk category", "Policy pack recommendation", "Intake compliance checklist", "Registry governance row"]
    },
    "steward-build": {
      title: "Data Steward — Build (5–9)",
      phases: "5–9",
      steward: ["Contract enforcement", "Data card sign-off", "Feature store governance", "Contract OUT validation at inference"],
      gc: ["Card reviews · gateway conformance prep"]
    },
    "gc-build": {
      title: "AI Governance (GC) — Build & Deploy (5–9)",
      phases: "5–9",
      steward: ["Lineage completeness checks"],
      gc: ["Application / model / data card reviews", "Gateway conformance FSM", "EU AI Act technical documentation", "PRR/PRD gate evidence"]
    },
    throughout: {
      title: "Governance — Build through Retire (5–12)",
      phases: "5–12",
      steward: ["Ongoing contract & catalog hygiene"],
      gc: ["Cards · lineage · gateway · audit trail · FTI run evidence"]
    },
    "steward-retire": {
      title: "Data Steward — Operate & Retire (10–12)",
      phases: "10–12",
      steward: ["Retention schedules · purge execution", "Data lineage closure", "Archive data governance"],
      gc: ["Retire evidence bundle review"]
    },
    "gc-operate": {
      title: "Data & AI Governance Officer (GC) — Operate & Retire (10–12)",
      phases: "10–12",
      steward: ["Consulted on retention"],
      gc: ["Audit export", "Post-market monitoring (Art. 72)", "Archive sign-off", "Gateway off verification", "Retire evidence bundle · P6"]
    }
  };

  const PILLARS = {
    discover: {
      title: "① Discover & Intake",
      phases: [0, 1, 2, 3],
      summary: "Business demand → governed intake · DAPS · feasibility · zones A",
      maturity: "Intake (0–2) · POC entry (3)",
      zones: "MLOps zone A — business + architecture planning (no FTI runs)",
      processes: ["P1"],
      goal: "This lane converts raw business demand into a registry-backed, governance-aware intake package. Teams articulate why the initiative exists, who decides with the model, what success looks like in KPI and SLA terms, and whether data and risk make a POC worthwhile. Nothing in Feature–Training–Inference runs here; the outcome is alignment and authorization to design the solution.",
      flow: "Work typically opens when a sponsor or Analytics Translator spots an opportunity or regulatory trigger. Phase 0 captures the mandate and provisional risk posture; phase 1 structures the decision framework through DAPS (Demand–Analytics–Problem–Solution, de Mast & Lokkerbol 2024); phase 2 binds measurable KPIs and a draft application card; phase 3 stress-tests data availability and produces a go/no-go into architecture. Product Manager owns the thread in Control Tower while Governance Chief consults on policy horizon and Art. 6 classification. Data Steward engages early on catalog, PII, and masking expectations so downstream data work does not stall.",
      inputs: ["Business opportunity or regulatory need", "Portfolio and strategy context", "Demand signal and sponsor mandate", "Finance targets and operational KPI baselines"],
      outputs: ["Problem statement and intake brief", "DAPS diagram and registry row", "Business case with project.kpis and draft SLA", "Feasibility report, risk category, FTI plan stub, lineage stub"],
      governance: ["Data Steward (DST): catalog alignment, PII/masking requirements, DPIA inputs from feasibility", "Governance Chief (GC/DAIGO): provisional EU AI Act category, intake compliance, policy pack recommendation", "Processes P1 (intake) gates registry creation before POC spend"],
      gates: { start: "Demand signal or sponsor mandate — no formal registry required yet", end: "Feasibility go/no-go (phase 3) with PM accountable sign-off; architecture lane (phase 4) may not start without approved intake and risk category" },
      personas: [
        { persona: "AT (Analytics Translator)", role: "R / liaison", what: "Business–analytics bridge, DAPS facilitation", how: "Workshops, KPI framing, portfolio narrative", when: "Phases 0–3; value reporting in 11" },
        { persona: "BS (Business sponsor)", role: "A", what: "Funding, mandate, decision ownership", how: "Sponsor sign-off on DAPS and business case", when: "0–2, informed 10 & 12" },
        { persona: "PM (Product Manager)", role: "A/R", what: "Registry, intake status, roadmap", how: "Control Tower portfolio, application card draft", when: "All intake phases; accountable for go/no-go" },
        { persona: "GC (Governance Chief)", role: "C → A/R later", what: "Policy horizon, risk badge, compliance", how: "Provisional classification, P1 intake review", when: "0–3 consulted; escalates to accountable in operate" },
        { persona: "DS (Data Scientist)", role: "C", what: "Feasibility, data landscape, eval criteria sketch", how: "Sample scope, lineage stub, FTI feasibility", when: "Phase 2–3 primarily" },
        { persona: "MLE (ML Engineer)", role: "I", what: "Technical feasibility signal", how: "Informed on architecture constraints early", when: "Phase 1 onward" },
        { persona: "DST (Data Steward)", role: "C", what: "Catalog, retention, data approval path", how: "DPIA inputs, masking rules before EDA", when: "From phase 1; critical at feasibility" }
      ]
    },
    plan: {
      title: "② Plan & Architecture",
      phases: [4],
      summary: "Solution & MLOps architecture · AI BOM · policy pack binding (P2)",
      maturity: "POC — architecture gate before repeatable FTI",
      zones: "MLOps zone A — closes planning; defines B–D handoff",
      processes: ["P2"],
      goal: "A single architecture gate translates approved intake into an implementable MLOps design: where data lands, how Feature–Training–Inference pipelines connect, which policy pack applies, and what evidence the gateway will require. This lane prevents teams from building features before conformance rules and AI BOM layers are explicit.",
      flow: "After feasibility, Solution Designer ML leads solution and platform architecture with ML Engineer and Governance Chief. The team produces the architecture document, binds the policy pack (P2), and stubs the FTI plan and AI BOM seven-layer view. Registry stage remains poc; no production deploy occurs here. Outputs feed directly into EDA and feature engineering — DE/AE/DS pick up zone B with contracts and lineage expectations already set.",
      inputs: ["Feasibility report and go/no-go", "AI BOM draft and lineage stub", "Risk category and policy recommendations from GC"],
      outputs: ["Solution / MLOps architecture document", "AI BOM, policy pack binding, FTI execution plan", "Templates for data card, model card, application card"],
      governance: ["GC: policy pack assignment, conformance FSM rules, EU AI Act evidence map", "DST: data-domain approval for sources named in architecture", "P2 must complete before pilot gateway configuration in phase 8"],
      gates: { start: "Approved feasibility and intake registry row (end of lane ①)", end: "Signed architecture + bound policy pack; EDA (phase 5) may start; pilot FTI still requires phases 5–7" },
      personas: [
        { persona: "SD (Solution Designer ML)", role: "A/R", what: "Solution & MLOps architecture, templates", how: "Reference architectures, integration patterns", when: "Phase 4; consulted 8–9" },
        { persona: "MLE (ML Engineer)", role: "C", what: "Pipeline standards, deploy path design", how: "FTI plan, CI/CD and gateway placement", when: "Phase 4; owns build lanes after" },
        { persona: "GC (Governance Chief)", role: "C", what: "Policy pack, conformance, cards schema", how: "P2 binding, obligation mapping", when: "Phase 4 accountable for policy artifacts" },
        { persona: "PM (Product Manager)", role: "I", what: "Scope and priority alignment", how: "Portfolio context, milestone expectations", when: "Informed at architecture sign-off" },
        { persona: "DS (Data Scientist)", role: "C", what: "Feature and experiment design constraints", how: "Eval criteria, data card expectations", when: "Consulted on FTI stub" },
        { persona: "DST (Data Steward)", role: "C", what: "Source approval, contract patterns", how: "Data domain sign-off for architecture sources", when: "Before EDA starts" }
      ]
    },
    model: {
      title: "③ Modelling & FTI Build",
      phases: [5, 6, 7, 8],
      summary: "EDA → Feature (F) → Training (T) → Inference (I) · zones B–C–D transition",
      maturity: "POC (5) · Prototype (5–6) · Pilot (6–8) — full FTI spine including I at 8",
      zones: "MLOps B (feature) · C (training) · D transition · FTI-F · FTI-T · FTI-I",
      processes: ["P2 (ongoing conformance)", "P3 (gateway config prep at phase 8)"],
      goal: "This lane is where the complete FTI spine is built: profiled data, published features with contracts, trained models with MLflow lineage, and the inference pipeline artifact. Maturity moves from exploratory EDA through repeatable feature pipelines to pilot-grade training and inference build. Phase 8 (I) completes FTI — scoring path design, inference pipeline, batch scoring artifact, and gateway config prep — not production delivery.",
      flow: "Data Engineers and Analytics Engineers land and transform sources while Data Scientists own EDA and feature accountability. Phase 6 publishes the data card and data contract; phase 7 registers experiments and produces the model card; phase 8 designs and builds the inference pipeline (batch/online), batch scoring artifact, application card (inference), and gateway config draft. The FTI build→delivery gap (poster callout) sits between phase 8 artifact completion and phase 9 production delivery modes. GC consults on card completeness; DST enforces quality and lineage on every publish.",
      inputs: ["Raw sources, landing zones, curated tables", "Architecture FTI plan and policy pack", "Eval config, feature definitions, contract OUT spec"],
      outputs: ["Data card (draft→signed), data contract, feature store publish", "Model card, MLflow runs, metrics, promotion candidate", "Inference pipeline artifact, batch scoring artifact, application card (inference), gateway config draft"],
      governance: ["DST: data approval, contract enforcement, contract OUT validation at phase 8", "GC: data/model/inference card review, gateway config prep", "Full FTI artifact set required before production delivery (phase 9)"],
      gates: { start: "Bound policy pack and architecture sign-off (end of lane ②)", end: "Inference pipeline artifact and application card (inference) accepted; production delivery (phase 9) may begin" },
      personas: [
        { persona: "DE (Data Engineer)", role: "R", what: "Ingest, landing zones, batch/stream", how: "Orchestration, pipeline ops", when: "Phases 5–6" },
        { persona: "AE (Analytics Engineer)", role: "R", what: "Curated models, dbt/SQL CI", how: "Transform layers feeding features", when: "Phases 5–6" },
        { persona: "DS (Data Scientist)", role: "A/R", what: "EDA, features, experiments, inference validation", how: "Data card editor, feature specs, training eval", when: "5–8, 11 improve loop" },
        { persona: "DC (Data Consultant)", role: "C", what: "Documentation quality", how: "Metadata with AE/DS on cards", when: "5–6" },
        { persona: "MLE (ML Engineer)", role: "A/R", what: "Training ops, inference pipeline build", how: "MLflow, pipeline hardening, scoring path", when: "7–8 primary; consulted 6" },
        { persona: "GC (Governance Chief)", role: "C", what: "Card and policy conformance", how: "Evidence gaps before delivery", when: "5–8" },
        { persona: "DST (Data Steward)", role: "C", what: "Quality rules, contracts", how: "Sign-off on data publish", when: "5–6 critical; 8 contract OUT" }
      ]
    },
    deploy: {
      title: "④ Deployment & Delivery",
      phases: [9],
      summary: "Production delivery modes · batch trigger vs realtime API · PRD · zone D · P3·P4",
      maturity: "MVP/PRD (9) — delivery and evidence bundling, not FTI-I build",
      zones: "MLOps D · gateway enforce · consumer integration",
      processes: ["P3", "P4"],
      goal: "Deployment lane delivers governed production inference — not FTI-I build (that lives in lane ③). Teams choose delivery mode: batch inference (trigger FTI pipeline, AZML batch endpoint, schedule) or realtime inference (API, model embedded, online feature store, gateway enforce). Phase 9 bundles CI/CD prod deploy, PRR/PRD gate, integration sign-off, and complete technical documentation.",
      flow: "ML Engineer and DevOps trigger production delivery with Solution Designer on integration patterns. Batch mode schedules or invokes the completed FTI inference pipeline; realtime mode exposes an API with embedded model, online features, and gateway enforcement. GC must approve PRR/PRD evidence completeness before operate lane accepts traffic at scale. Quality, automation, and infra grid cover CI/CD, conformance FSM, and rollback — not duplicate inference build.",
      inputs: ["Inference pipeline artifact", "Gateway config draft", "Application card (inference)", "Integration targets"],
      outputs: ["Batch endpoint or realtime API live", "Gateway enabled with decision traces", "Final cards, tech docs export, integration evidence"],
      governance: ["GC: PRR/PRD review (P4), gateway policy, audit-ready evidence bundle", "DST: consumer data flows in integration contracts", "P3 gateway must be on before production operate (phase 10)"],
      gates: { start: "Accepted inference pipeline artifact and FTI-I complete (end of lane ③)", end: "PRD sign-off and production deploy; integrated operational (phase 10) may begin" },
      personas: [
        { persona: "MLE (ML Engineer)", role: "A/R", what: "Delivery wiring, CI/CD, gateway", how: "Batch trigger, realtime API, deploy records", when: "9–12 primary owner" },
        { persona: "SD (Solution Designer ML)", role: "C", what: "Integration architecture", how: "API/batch patterns, rollback design", when: "9" },
        { persona: "DO (DevOps)", role: "R", what: "Runtime, infra, SLO plumbing", how: "Environments, probes, secrets, batch schedule", when: "Phase 9" },
        { persona: "AI-Eng (GenAI track)", role: "A/R alt.", what: "LLM gateway, prompts, agent traces", how: "Provider baseline instead of classical T", when: "6–11 on GenAI programs" },
        { persona: "GC (Governance Chief)", role: "C", what: "PRD gate, gateway enforce", how: "P3/P4 reviews, obligation checklist", when: "9" },
        { persona: "PM (Product Manager)", role: "A", what: "PRD sponsorship, integration sign-off", how: "Business acceptance of go-live", when: "Phase 9 accountable" },
        { persona: "DS (Data Scientist)", role: "C", what: "Model behaviour, eval replay", how: "Supports delivery validation", when: "9 consulted" }
      ]
    },
    operate: {
      title: "⑤ Operate · Improve · Retire",
      phases: [10, 11, 12],
      summary: "Integrated prod · monitor/improve · retire · zone D · P4·P5·P6",
      maturity: "Production (10) · Operate (11) · Retire (12)",
      zones: "MLOps D · FTI-I live (+ retrain T loop)",
      processes: ["P4", "P5", "P6"],
      goal: "After deploy, the system lives in production: integrated consumers, binding SLOs, continuous monitoring with persona-split responsibilities, improvement loops back to features or training, and eventual orderly retirement. This lane sustains value and compliance until the asset is decommissioned with archive and gateway off.",
      flow: "Phase 10 confirms live endpoints, BI/ops feeds, and adoption metrics with PM accountable and MLE responsible for technical health. Phase 11 splits monitoring by persona on the poster (MLE technical, DS analytical, GC compliance, PM value) — drift, incidents, retrain triggers, and audit exports under P4/P5. Improvement may loop to phase 6 or 7 without restarting intake. Phase 12 executes P6: undeploy, archive evidence, notify consumers, set lifecycleStage=retired, and verify gateway off with GC accountable and PM responsible for business wind-down.",
      inputs: ["Signed integrations, SLO targets, consumer contracts", "Metrics, traces, drift signals, incident reports", "Retire request and evidence bundle"],
      outputs: ["Live endpoints, SLO dashboards, adoption metrics", "model_runs, incidents, reviews, value reports, retrain triggers", "Retire record, archive export, gateway off confirmation"],
      governance: ["GC: audit export, post-market monitoring (Art. 72), retire sign-off", "DST: retention, purge, lineage closure", "P5 incidents may trigger containment; P6 requires evidence bundle"],
      gates: { start: "PRD production deploy complete (end of lane ④)", end: "lifecycleStage=retired with archive and gateway off; optionally loops to Envision (0) for replacement programs" },
      personas: [
        { persona: "MLE (ML Engineer)", role: "A/R", what: "Operate endpoints, retrain, undeploy", how: "Monitoring pipelines, FTI-I runs", when: "10–12" },
        { persona: "GC (Governance Chief)", role: "A/R", what: "Compliance monitoring, retire approval", how: "Audit, reviews, P5/P6", when: "11–12 accountable" },
…
        { text: "Feature / schema drift", roles: [{ id: "DS", letter: "R" }] },
        { text: "Model performance & drift", roles: [{ id: "DS", letter: "R" }, { id: "MLE", letter: "C" }] },
        { text: "Retrain triggers", roles: [{ id: "DS", letter: "R" }] },
        { text: "Direct observability", roles: [{ id: "DS", letter: "R" }] }
      ],
      mle: [
        { text: "Infra (CPU, memory, scale)", roles: [{ id: "MLE", letter: "A" }] },
        { text: "Pipeline health (F/T/I)", roles: [{ id: "MLE", letter: "R" }] },
        { text: "Latency / throughput / errors", roles: [{ id: "MLE", letter: "R" }, { id: "DO", letter: "C" }] },
        { text: "SLO budgets", roles: [{ id: "MLE", letter: "A" }] },
        { text: "Deploy & rollback health", roles: [{ id: "MLE", letter: "R" }] }
      ]
    }
  };

  const PHASE_TASK_ROLES = {
    0: [[{ id: "AT", letter: "R" }, { id: "PM", letter: "A" }, { id: "BS", letter: "A" }], [{ id: "AT", letter: "R" }, { id: "BS", letter: "A" }], [{ id: "GC", letter: "C" }, { id: "AT", letter: "R" }]],
    1: [[{ id: "AT", letter: "R" }, { id: "PM", letter: "A" }], [{ id: "AT", letter: "R" }, { id: "PM", letter: "A" }], [{ id: "PM", letter: "A" }, { id: "AT", letter: "R" }]],
    2: [[{ id: "PM", letter: "A" }, { id: "BS", letter: "A" }], [{ id: "PM", letter: "A" }, { id: "AT", letter: "C" }], [{ id: "PM", letter: "A" }, { id: "DS", letter: "C" }], [{ id: "PM", letter: "A" }, { id: "AT", letter: "C" }]],
    3: [[{ id: "DS", letter: "C" }, { id: "AT", letter: "C" }], [{ id: "PM", letter: "A" }], [{ id: "DS", letter: "C" }, { id: "MLE", letter: "I" }], [{ id: "DS", letter: "C" }, { id: "DE", letter: "R" }]],
    4: [[{ id: "SD", letter: "A" }], [{ id: "SD", letter: "R" }, { id: "MLE", letter: "C" }], [{ id: "SD", letter: "R" }, { id: "GC", letter: "C" }], [{ id: "SD", letter: "R" }, { id: "MLE", letter: "C" }]],
    5: [[{ id: "DE", letter: "R" }, { id: "DS", letter: "A" }], [{ id: "DE", letter: "R" }, { id: "AE", letter: "R" }], [{ id: "DST", letter: "C" }, { id: "DS", letter: "A" }], [{ id: "DS", letter: "A" }, { id: "DC", letter: "C" }]],
    6: [[{ id: "DE", letter: "R" }, { id: "DS", letter: "A" }], [{ id: "AE", letter: "R" }, { id: "DST", letter: "C" }], [{ id: "DE", letter: "R" }, { id: "DS", letter: "A" }]],
    7: [[{ id: "DS", letter: "A" }], [{ id: "MLE", letter: "R" }], [{ id: "DS", letter: "A" }, { id: "MLE", letter: "R" }], [{ id: "MLE", letter: "R" }, { id: "DS", letter: "A" }]],
    8: [[{ id: "MLE", letter: "A" }], [{ id: "MLE", letter: "A" }], [{ id: "MLE", letter: "A" }, { id: "DS", letter: "C" }], [{ id: "MLE", letter: "A" }, { id: "GC", letter: "C" }], [{ id: "MLE", letter: "A" }, { id: "GC", letter: "C" }]],
    9: [[{ id: "MLE", letter: "A" }, { id: "DO", letter: "R" }], [{ id: "MLE", letter: "A" }, { id: "DO", letter: "R" }], [{ id: "MLE", letter: "A" }, { id: "SD", letter: "C" }], [{ id: "PM", letter: "A" }, { id: "GC", letter: "C" }], [{ id: "PM", letter: "A" }, { id: "MLE", letter: "R" }]],
    10: [[{ id: "MLE", letter: "R" }], [{ id: "MLE", letter: "R" }], [{ id: "MLE", letter: "R" }, { id: "DA", letter: "I" }], [{ id: "MLE", letter: "R" }, { id: "DA", letter: "I" }], [{ id: "PM", letter: "A" }]],
    11: [[{ id: "DS", letter: "R" }, { id: "MLE", letter: "A" }], [{ id: "DS", letter: "R" }], [{ id: "MLE", letter: "A" }, { id: "GC", letter: "A" }], [{ id: "GC", letter: "A" }, { id: "DAIGO", letter: "A" }], [{ id: "AT", letter: "R" }, { id: "PM", letter: "I" }], [{ id: "GC", letter: "A" }, { id: "DAIGO", letter: "A" }]],
    12: [[{ id: "MLE", letter: "C" }, { id: "PM", letter: "R" }], [{ id: "GC", letter: "A" }, { id: "DAIGO", letter: "A" }], [{ id: "MLE", letter: "C" }, { id: "GC", letter: "A" }], [{ id: "DST", letter: "C" }, { id: "PM", letter: "R" }], [{ id: "GC", letter: "A" }, { id: "PM", letter: "R" }]]
  };

  Object.keys(PHASES).forEach((n) => {
    const roleRows = PHASE_TASK_ROLES[n];
    if (!roleRows) return;
    PHASES[n].tasks = PHASES[n].tasks.map((text, i) => ({ text, roles: roleRows[i] || [] }));
  });

  MONITORING.at.items = POSTER_TASKS.monitor.at;
  MONITORING.ds.items = POSTER_TASKS.monitor.ds;
  MONITORING.mle.items = POSTER_TASKS.monitor.mle;

  function getTaskSet(path) {
    const parts = path.split(".");
    let cur = POSTER_TASKS;
    for (const p of parts) cur = cur?.[p];
    return cur;
  }

  function hydratePosterRoles() {
    document.querySelectorAll("[data-task-set]").forEach((ul) => {
      const tasks = getTaskSet(ul.dataset.taskSet);
      if (tasks) ul.innerHTML = renderTaskList(tasks);
    });

    document.querySelectorAll("[data-flow-roles]").forEach((el) => {
      el.insertAdjacentHTML("afterbegin", renderRoleIcons(parseRoles(el.dataset.flowRoles), "sm"));
    });

    document.querySelectorAll("[data-deploy-roles]").forEach((el) => {
      el.insertAdjacentHTML("afterbegin", renderRoleIcons(parseRoles(el.dataset.deployRoles), "sm"));
    });

    document.querySelectorAll("[data-gov-roles]").forEach((el) => {
      el.insertAdjacentHTML("afterbegin", renderRoleIcons(parseRoles(el.dataset.govRoles), "sm") + " ");
    });

    document.querySelectorAll("[data-infra-roles]").forEach((el) => {
      const rolesHtml = renderRoleIcons(parseRoles(el.dataset.infraRoles), "sm");
      const desc = el.querySelector(".infra-desc");
      if (desc) desc.insertAdjacentHTML("beforebegin", `<span class="infra-roles">${rolesHtml}</span>`);
      else el.insertAdjacentHTML("beforeend", `<span class="infra-roles">${rolesHtml}</span>`);
    });

    document.querySelectorAll("[data-role-header]").forEach((el) => {
      const roles = parseRoles(el.dataset.roleHeader);
      const suffix = el.textContent.includes("—") ? el.textContent.split("—").slice(1).join("—").trim() : el.textContent;
      el.innerHTML = `${renderRoleIcons(roles, "sm")}<span>— ${suffix}</span>`;
    });

    document.querySelectorAll(".persona-row").forEach((row) => {
      const abbrEl = row.querySelector(".persona-abbr");
      if (!abbrEl) return;
      const id = resolveRoleId(abbrEl.textContent.trim());
      if (id) abbrEl.outerHTML = renderRoleIcons([{ id }], "sm");
    });

    const gapBar = document.querySelector("[data-gap-roles]");
    if (gapBar) {
      const label = gapBar.querySelector(".label");
      if (label) label.insertAdjacentHTML("afterbegin", renderRoleIcons(parseRoles(gapBar.dataset.gapRoles), "sm") + " ");
    }

    const legendGrid = document.getElementById("roleLegendGrid");
    if (legendGrid) {
      legendGrid.innerHTML = LEGEND_ORDER.map((id) => {
        const r = ROLES[id];
        return `<button type="button" class="role-legend-item" data-role-desc="${id}" title="${escapeAttr(r.desc)}">${renderRoleIcon(id, "", "legend")}<span class="role-legend-name">${r.name}</span></button>`;
      }).join("");
      legendGrid.querySelectorAll("[data-role-desc]").forEach((btn) => {
        btn.addEventListener("click", () => {
          const role = ROLES[btn.dataset.roleDesc];
          if (role) alert(`${role.name}\n\n${role.desc}`);
        });
      });
    }
  }

  const DAPS_STORAGE_PREFIX = "ml-lifecycle-daps-";
  const DAPS_DEFAULT_KEY = DAPS_STORAGE_PREFIX + "draft";

  const DAPS_TIERS = [
    { key: "businessValue", title: "Business value · phase 0", tierClass: "" },
    { key: "decisionFramework", title: "Decision framework · phase 1", tierClass: "daps-form-tier--decision" },
    { key: "dataAnalyticProblem", title: "Data-analytic problem · phase 2", tierClass: "daps-form-tier--analytics" }
  ];

  const DAPS_FIELDS = {
    organizationKpi: { tier: "businessValue", phase: 0, label: "Organization KPI", placeholder: "How will the project contribute to the organization's goals?", multiline: true },
    operationalKpis: { tier: "businessValue", phase: 0, label: "Operational KPIs", placeholder: "Which operational metrics does the organization track?", multiline: true },
    projectKpi: { tier: "businessValue", phase: 0, label: "Project KPI", placeholder: "What is the direct benefit of applying the decision framework?", multiline: true },
    decisionsActions: { tier: "decisionFramework", phase: 1, label: "Decisions & actions", placeholder: "For what decisions/actions will the model be used?", multiline: true },
    decisionAgent: { tier: "decisionFramework", phase: 1, label: "Decision agent", placeholder: "What agent takes decisions?", multiline: false },
    decisionTiming: { tier: "decisionFramework", phase: 1, label: "Decision timing", placeholder: "When are decisions taken?", multiline: false },
    unitOfAnalysis: { tier: "decisionFramework", phase: 1, label: "Unit of analysis", placeholder: "At what level (customer, product, region…) are decisions made?", multiline: false },
    interventionScope: { tier: "decisionFramework", phase: 1, label: "Intervention scope", placeholder: "What is the scope of intervention?", multiline: true },
    targetVariables: { tier: "dataAnalyticProblem", phase: 2, label: "Target variables (Y₁, Y₂…)", placeholder: "What will the model predict?", multiline: true },
    predictors: { tier: "dataAnalyticProblem", phase: 2, label: "Predictors / features (X₁…Xₙ)", placeholder: "Describe or name a potential predictor / feature", type: "predictors" },
    relationshipType: { tier: "dataAnalyticProblem", phase: 2, label: "Relationship type", placeholder: "Correlational · causal · deductive — what is the type of relationship?", type: "relationship" }
  };

  const DAPS_RELATIONSHIP_OPTIONS = [
    { value: "correlational", label: "Correlational" },
    { value: "causal", label: "Causal" },
    { value: "deductive", label: "Deductive" }
  ];

  function createEmptyDapsDraft() {
    return {
      projectName: "",
      updatedAt: null,
      fields: Object.fromEntries(Object.keys(DAPS_FIELDS).filter((k) => DAPS_FIELDS[k].type !== "predictors").map((k) => [k, ""])),
      predictors: ["", "", ""],
      relationshipType: ""
    };
  }

  function slugifyProjectName(name) {
    return (name || "").trim().toLowerCase().replace(/[^a-z0-9]+/g, "-").replace(/^-+|-+$/g, "") || "draft";
  }

  function dapsStorageKey(projectName) {
    const slug = slugifyProjectName(projectName);
    return slug === "draft" ? DAPS_DEFAULT_KEY : DAPS_STORAGE_PREFIX + slug;
  }

  function loadDapsDraft() {
    try {
      const raw = localStorage.getItem(DAPS_DEFAULT_KEY);
      if (raw) {
        const parsed = JSON.parse(raw);
        return normalizeDapsDraft(parsed);
      }
    } catch (_) { /* ignore corrupt draft */ }
    return createEmptyDapsDraft();
  }

  function normalizeDapsDraft(data) {
    const base = createEmptyDapsDraft();
    if (!data || typeof data !== "object") return base;
    base.projectName = typeof data.projectName === "string" ? data.projectName : "";
    base.updatedAt = data.updatedAt || null;
    base.relationshipType = data.relationshipType || data.fields?.relationshipType || "";
    base.predictors = Array.isArray(data.predictors) && data.predictors.length
      ? data.predictors.map(String)
      : ["", "", ""];
    Object.keys(DAPS_FIELDS).forEach((key) => {
      if (DAPS_FIELDS[key].type === "predictors" || DAPS_FIELDS[key].type === "relationship") return;
      const val = data.fields?.[key] ?? data[key];
      base.fields[key] = typeof val === "string" ? val : "";
    });
    return base;
  }

  let dapsDraft = loadDapsDraft();
  let dapsSaveTimer = null;

  const backdrop = document.getElementById("detailBackdrop");
  const panel = document.getElementById("detailPanel");
  const backBtn = document.getElementById("detailBack");
  const closeBtn = document.getElementById("detailClose");
  const breadcrumb = document.getElementById("detailBreadcrumb");
  const titleEl = document.getElementById("detailTitle");
  const subtitleEl = document.getElementById("detailSubtitle");
  const badgesEl = document.getElementById("detailBadges");
  const tabsEl = document.getElementById("detailTabs");
  const bodyEl = document.getElementById("detailBody");

  const stack = [];
  let isOpen = false;

  function renderSection(heading, items) {
    if (!items || !items.length) return "";
    const lis = items.map((i) => {
      if (typeof i === "object" && i !== null && i.text) return renderTaskLi(i);
      return `<li><span class="task-text">${i}</span></li>`;
    }).join("");
    return `<section class="detail-section"><h3>${heading}</h3><ul class="tasks">${lis}</ul></section>`;
  }

  function renderProseSection(heading, html) {
    if (!html) return "";
    return `<section class="detail-section"><h3>${heading}</h3><p class="lane-prose">${html}</p></section>`;
  }

  function renderPersonaTable(rows) {
    if (!rows || !rows.length) return "";
    const head = "<tr><th></th><th>Persona</th><th>Role</th><th>What</th><th>How</th><th>When</th></tr>";
    const body = rows.map((r) => {
      const pid = extractPersonaId(r.persona);
      const iconCell = pid ? renderRoleIcons([{ id: pid }], "sm") : "";
      return `<tr><td>${iconCell}</td><td>${r.persona}</td><td>${r.role}</td><td>${r.what}</td><td>${r.how}</td><td>${r.when}</td></tr>`;
    }).join("");
    return `<section class="detail-section"><h3>Personas involved</h3><div class="persona-table-wrap"><table class="persona-table"><thead>${head}</thead><tbody>${body}</tbody></table></div></section>`;
  }

  function renderLanePhaseList(phaseNums) {
    const items = phaseNums.map((n) => {
      const p = PHASES[n];
      if (!p) return "";
      return `<li class="lane-phase-item"><span class="lane-phase-num">${n}</span><div><div class="lane-phase-name">${p.name}</div><div class="lane-phase-meta">${p.maturity} · zone ${p.zone} · ${p.stage}</div></div></li>`;
    }).join("");
    return `<section class="detail-section"><h3>Phases covered (0–12)</h3><ul class="lane-phase-grid">${items}</ul></section>`;
  }

  function renderLaneIO(inputs, outputs) {
    return `<section class="detail-section"><h3>Inputs → outputs (lane level)</h3>
      <div class="lane-io">
        <div class="lane-io-col lane-io-in"><h4>Inputs</h4><ul>${(inputs || []).map((i) => `<li>${i}</li>`).join("")}</ul></div>
        <div class="lane-io-arrow">→</div>
        <div class="lane-io-col lane-io-out"><h4>Outputs</h4><ul>${(outputs || []).map((i) => `<li>${i}</li>`).join("")}</ul></div>
      </div></section>`;
  }

  function setActivePillar(key) {
    document.querySelectorAll(".chevron-head").forEach((el) => {
      el.classList.toggle("pillar-active", key && el.closest("[data-pillar]")?.dataset.pillar === key);
    });
    panel.classList.toggle("detail-panel--lane", Boolean(key));
  }

  /* ── Stacked swimlane expand / focus ── */
  const PILLAR_KEYS = ["discover", "plan", "model", "deploy", "operate"];
  const MAT_STAGE_BAR = {
    intake: "#cbd5e1",
    poc: "#fef08a",
    proto: "#fed7aa",
    pilot: "#93c5fd",
    prd: "#86efac",
    prod: "#6ee7b7",
    op: "#a5b4fc",
    ret: "#cbd5e1"
  };
  let focusedLaneKey = null;
  let laneKeyboardKey = null;

  function lanePhaseRangeLabel(phaseNums) {
    if (!phaseNums?.length) return "";
    if (phaseNums.length === 1) return `phase ${phaseNums[0]}`;
    return `phases ${phaseNums[0]}–${phaseNums[phaseNums.length - 1]}`;
  }

  function lanePhaseRangeShort(phaseNums) {
    if (!phaseNums?.length) return "";
    if (phaseNums.length === 1) return `phase ${phaseNums[0]}`;
    return `phases ${phaseNums[0]}–${phaseNums[phaseNums.length - 1]}`;
  }

  function setLaneKeyboardFocus(key) {
    laneKeyboardKey = key || null;
    document.querySelectorAll(".phases .pillar[data-pillar]").forEach((pillar) => {
      pillar.classList.toggle("is-lane-keyboard", Boolean(key && pillar.dataset.pillar === key));
    });
  }

  function setLaneFocus(key) {
    focusedLaneKey = key || null;
    document.querySelectorAll(".phases .pillar[data-pillar]").forEach((pillar) => {
      const on = Boolean(key && pillar.dataset.pillar === key);
      pillar.classList.toggle("is-focused", on);
      pillar.setAttribute("aria-expanded", on ? "true" : "false");
    });
    if (key) setLaneKeyboardFocus(key);
    else if (!laneKeyboardKey) setLaneKeyboardFocus(null);
  }

  function toggleLaneFocus(key) {
    setLaneFocus(focusedLaneKey === key ? null : key);
  }

  function clearLaneFocus() {
    setLaneFocus(null);
    setLaneKeyboardFocus(null);
  }

  function isEditableTarget(t) {
    if (!t || !(t instanceof Element)) return false;
    const tag = t.tagName;
    if (tag === "INPUT" || tag === "TEXTAREA" || tag === "SELECT") return true;
    if (t.isContentEditable) return true;
    return Boolean(t.closest("[contenteditable=true]"));
  }

  function shouldHandleLaneKeys(e) {
    if (e.defaultPrevented || e.altKey || e.ctrlKey || e.metaKey) return false;
    if (isEditableTarget(e.target)) return false;
    if (seqOverlay?.classList.contains("is-open")) return false;
    if (isOpen && e.target.closest(".detail-panel")) return false;
    return true;
  }

  function initSwimlanes() {
    const phases = document.querySelector(".phases");
    const hoverMedia = window.matchMedia("(hover: hover) and (min-width: 900px)");
    let hoverExpandTimer = null;

    function applyKeyboardLaneExpand(key) {
      if (!hoverMedia.matches || !phases || !key) return;
      const pillar = phases.querySelector(`.pillar[data-pillar="${key}"]`);
      if (!pillar) return;
      phases.querySelectorAll(".pillar.is-hover").forEach((el) => {
        if (el !== pillar) el.classList.remove("is-hover");
      });
      pillar.classList.add("is-hover");
    }

    function focusLaneByKey(key) {
      if (!PILLAR_KEYS.includes(key)) return;
      setLaneKeyboardFocus(key);
      if (focusedLaneKey) setLaneFocus(key);
      applyKeyboardLaneExpand(key);
      const pillar = phases?.querySelector(`.pillar[data-pillar="${key}"]`);
      pillar?.focus({ preventScroll: false });
    }

    function navigateLane(delta) {
      const base = focusedLaneKey || laneKeyboardKey || PILLAR_KEYS[0];
      let idx = PILLAR_KEYS.indexOf(base);
      if (idx < 0) idx = 0;
      idx = (idx + delta + PILLAR_KEYS.length) % PILLAR_KEYS.length;
      focusLaneByKey(PILLAR_KEYS[idx]);
    }

    document.addEventListener("keydown", (e) => {
      if (!shouldHandleLaneKeys(e)) return;
      if (e.key === "ArrowLeft") {
        e.preventDefault();
        navigateLane(-1);
        return;
      }
      if (e.key === "ArrowRight") {
        e.preventDefault();
        navigateLane(1);
        return;
      }
      const digit = e.key >= "1" && e.key <= "5" ? Number(e.key) - 1 : -1;
      if (digit >= 0) {
        e.preventDefault();
        focusLaneByKey(PILLAR_KEYS[digit]);
      }
    });

    function clearHoverState() {
      if (hoverExpandTimer) {
        clearTimeout(hoverExpandTimer);
        hoverExpandTimer = null;
      }
      phases?.querySelectorAll(".pillar.is-hover").forEach((pillar) => {
        pillar.classList.remove("is-hover");
      });
    }

    function setHoverPillar(pillar) {
      if (!hoverMedia.matches || !phases) return;
      if (hoverExpandTimer) {
        clearTimeout(hoverExpandTimer);
        hoverExpandTimer = null;
      }
      phases.querySelectorAll(".pillar.is-hover").forEach((el) => {
        if (el !== pillar) el.classList.remove("is-hover");
      });
      hoverExpandTimer = window.setTimeout(() => {
        pillar.classList.add("is-hover");
        hoverExpandTimer = null;
      }, 200);
    }

    if (phases && hoverMedia.matches) {
      phases.querySelectorAll(".pillar[data-pillar]").forEach((pillar) => {
        pillar.addEventListener("mouseenter", () => setHoverPillar(pillar));
        pillar.addEventListener("mouseleave", (e) => {
          const related = e.relatedTarget;
          if (!related || !phases.contains(related)) {
            clearHoverState();
            return;
          }
          if (!related.closest?.(".pillar[data-pillar]")) clearHoverState();
        });
      });

      phases.addEventListener("mouseleave", (e) => {
        if (!phases.contains(e.relatedTarget)) clearHoverState();
      });
    }

    document.querySelectorAll(".phases .pillar[data-pillar]").forEach((pillar) => {
      const key = pillar.dataset.pillar;
      const pl = PILLARS[key];
      const head = pillar.querySelector(".chevron-head");

      const phaseNums = pl?.phases || [];
      const rangeLabel = lanePhaseRangeLabel(phaseNums);
      const rangeShort = lanePhaseRangeShort(phaseNums);

      if (head && head.dataset.pillarDetail) {
        const numEl = head.querySelector(".chevron-num");
        const titleEl = head.querySelector(".chevron-head__title");
        const num = numEl ? numEl.textContent.trim() : "";
        let titleText = titleEl ? titleEl.textContent.trim() : head.textContent.trim();
        const legacy = titleText.match(/^([①②③④⑤])\s*(.+)$/);
        if (legacy) titleText = legacy[2].trim();
        const numHtml = num ? `<span class="chevron-num">${num}</span>` : "";
        const rangeHtml = rangeShort
          ? `<span class="chevron-head__range" title="${rangeLabel}">${rangeShort}</span>`
          : "";
        head.removeAttribute("data-pillar-detail");
        head.removeAttribute("tabindex");
        head.innerHTML =
          numHtml +
          `<span class="chevron-head__text"><span class="chevron-head__title-row"><span class="chevron-head__title">${titleText}</span>${rangeHtml}</span></span>` +
          `<button type="button" class="chevron-brief clickable" data-pillar-detail="${key}" tabindex="0" aria-label="Open lane briefing for ${titleText}">↗</button>`;
      }

      pillar.querySelectorAll(".lane__peek").forEach((el) => el.remove());

      pillar.setAttribute("role", "region");
      pillar.setAttribute("aria-label", pl?.title || key);
      pillar.setAttribute("aria-expanded", "false");
      pillar.setAttribute("tabindex", "0");

      pillar.addEventListener("click", (e) => {
        if (e.target.closest(".clickable, [data-phase], [data-daps], [data-gov], [data-monitor], [data-infra], [data-gap], [data-flow-roles], [data-deploy-roles], .chevron-brief")) return;
        toggleLaneFocus(key);
      });

      pillar.addEventListener("keydown", (e) => {
        if (e.target !== pillar && !e.target.classList.contains("chevron-head__title")) return;
        if (e.key === "Enter" || e.key === " ") {
          e.preventDefault();
          toggleLaneFocus(key);
        }
      });

      head?.addEventListener("click", (e) => {
        if (e.target.closest(".chevron-brief")) return;
        e.stopPropagation();
        toggleLaneFocus(key);
      });
    });

    document.addEventListener("click", (e) => {
      if (focusedLaneKey && !e.target.closest(".phases")) clearLaneFocus();
    });
  }

  function bindInteractive(el, handler) {
    el.addEventListener("click", (e) => { e.stopPropagation(); handler(); });
    el.addEventListener("keydown", (e) => {
      if (e.key === "Enter" || e.key === " ") { e.preventDefault(); e.stopPropagation(); handler(); }
    });
  }

  function hideTabs() {
    if (!tabsEl) return;
    tabsEl.hidden = true;
    tabsEl.innerHTML = "";
  }

  function getPhaseBodyHTML(n) {
    const p = PHASES[n];
    if (!p) return "";
    return [
      renderSection("Process / tasks", p.tasks),
      renderSection("Delivery roles", [`${p.deliveryRoles} → ${p.platform}`]),
      renderSection("RACI", [p.raci]),
      renderSection("Inputs", p.inputs),
      renderSection("Outputs", p.outputs),
      renderSection("Artifacts", p.artifacts),
      renderSection("Governance", p.gov)
    ].join("");
  }

  function renderPhase(n) {
    const p = PHASES[n];
    if (!p) return;
    hideTabs();
    titleEl.textContent = `Phase ${n} — ${p.name}`;
    subtitleEl.textContent = `${p.maturity} · registry: ${p.stage} · MLOps zone ${p.zone}`;
    badgesEl.innerHTML = [
      `<span class="detail-badge">Phase ${n}</span>`,
      `<span class="detail-badge">${p.maturity}</span>`,
      `<span class="detail-badge">Zone ${p.zone}</span>`,
      ...(p.process || []).map((pr) => `<span class="detail-badge detail-badge--gov">${pr}: ${PROCESSES[pr] || pr}</span>`)
    ].join("");
    bodyEl.innerHTML = getPhaseBodyHTML(n);
  }

  function renderMonitor(key) {
    const m = MONITORING[key];
    if (!m) return;
    hideTabs();
    titleEl.textContent = m.title;
    subtitleEl.textContent = m.subtitle;
    badgesEl.innerHTML = `<span class="detail-badge">Phase ${m.phase}</span><span class="detail-badge">Operate</span><span class="detail-badge detail-badge--gov">P4 · P5</span>`;
    bodyEl.innerHTML = [
      renderSection("Monitoring focus", m.items),
      renderSection("Artifacts", m.artifacts),
      renderSection("RACI", [m.raci]),
      `<section class="detail-section"><h3>Related phase</h3><p><button type="button" class="detail-back" data-jump-phase="${m.phase}" style="margin-top:4px">Open phase ${m.phase} detail →</button></p></section>`
    ].join("");
    bodyEl.querySelector("[data-jump-phase]")?.addEventListener("click", () => {
      pushView({ type: "phase", id: m.phase, label: `Phase ${m.phase}` });
    });
  }

  function renderGov(key) {
    const g = GOVERNANCE[key];
    if (!g) return;
    hideTabs();
    titleEl.textContent = g.title;
    subtitleEl.textContent = `Phases ${g.phases}`;
    badgesEl.innerHTML = `<span class="detail-badge detail-badge--gov">Governance</span>`;
    bodyEl.innerHTML = [
      `<section class="detail-section"><h3>${renderRoleIcons([{ id: "DST" }], "sm")} Data Steward (DST)</h3><ul class="tasks">${(g.steward || []).map((i) => `<li>${renderRoleIcons([{ id: "DST" }], "sm")}<span class="task-text">${i}</span></li>`).join("")}</ul></section>`,
      `<section class="detail-section"><h3>${renderRoleIcons([{ id: "GC" }], "sm")} AI Governance / DAIGO (GC)</h3><ul class="tasks">${(g.gc || []).map((i) => `<li>${renderRoleIcons([{ id: "GC" }], "sm")}<span class="task-text">${i}</span></li>`).join("")}</ul></section>`
    ].join("");
  }

  function renderPillar(key) {
    const pl = PILLARS[key];
    if (!pl) return;
    hideTabs();
    setActivePillar(key);
    titleEl.textContent = pl.title;
    subtitleEl.textContent = "Lane overview · " + (pl.summary || "");
    const procBadges = (pl.processes || []).map((pr) =>
      `<span class="detail-badge detail-badge--gov">${pr}: ${PROCESSES[pr] || pr}</span>`
    ).join("");
    badgesEl.innerHTML = [
      `<span class="detail-badge">Lane</span>`,
      `<span class="detail-badge">${pl.maturity || ""}</span>`,
      `<span class="detail-badge">${pl.zones || ""}</span>`,
      ...pl.phases.map((n) => `<span class="detail-badge">Phase ${n}</span>`),
      procBadges
    ].join("");
    bodyEl.innerHTML = [
      renderProseSection("Goal", pl.goal),
      renderLanePhaseList(pl.phases),
      renderSection("Maturity bands", [pl.maturity]),
      renderSection("MLOps zone", [pl.zones]),
      renderSection("Key processes (P1–P6)", (pl.processes || []).map((pr) => `${pr} — ${PROCESSES[pr] || pr}`)),
      renderLaneIO(pl.inputs, pl.outputs),
      renderSection("Governance touchpoints", pl.governance),
      pl.gates ? `<section class="detail-section"><h3>Gates — when this lane starts &amp; ends</h3>
        <div class="lane-gates"><strong>Starts</strong>${pl.gates.start}<strong style="margin-top:8px">Ends</strong>${pl.gates.end}</div></section>` : "",
      renderProseSection("How work flows through", pl.flow),
      renderPersonaTable(pl.personas),
      `<section class="detail-section"><h3>Drill into phases</h3><ul>${pl.phases.map((n) => `<li><button type="button" class="detail-back" data-jump="${n}" style="font:inherit;cursor:pointer;background:none;border:none;color:#2563eb;padding:0">Phase ${n} — ${PHASES[n]?.name}</button></li>`).join("")}</ul></section>`
    ].join("");
    bodyEl.querySelectorAll("[data-jump]").forEach((btn) => {
      btn.addEventListener("click", () => pushView({ type: "phase", id: +btn.dataset.jump, label: `Phase ${btn.dataset.jump}` }));
    });
  }

  function renderInfra(key) {
    const i = INFRA[key];
    if (!i) return;
    hideTabs();
    titleEl.textContent = i.title;
    subtitleEl.textContent = i.desc;
    badgesEl.innerHTML = i.fti ? `<span class="detail-badge">FTI-${i.fti}</span>` : `<span class="detail-badge">Delivery</span>`;
    bodyEl.innerHTML = `<section class="detail-section"><h3>${renderRoleIcons(parseRoles(i.roles || ""), "sm")} Scope</h3><p>${i.desc}</p></section>`;
  }

  function isDapsFieldFilled(key, draft) {
    draft = draft || dapsDraft;
    const meta = DAPS_FIELDS[key];
    if (!meta) return false;
    if (meta.type === "predictors") {
      return (draft.predictors || []).some((p) => String(p).trim());
    }
    if (meta.type === "relationship") {
      return Boolean(String(draft.relationshipType || "").trim());
    }
    return Boolean(String(draft.fields?.[key] || "").trim());
  }

  function updateDapsBlockIndicators() {
    document.querySelectorAll("[data-daps-field]").forEach((el) => {
      const key = el.dataset.dapsField;
      el.classList.toggle("daps-block--filled", isDapsFieldFilled(key));
    });
  }

  function collectDapsFormFromDOM() {
    const form = bodyEl.querySelector(".daps-intake-form");
    if (!form) return;
    dapsDraft.projectName = form.querySelector("#dapsProjectName")?.value || "";
    Object.keys(DAPS_FIELDS).forEach((key) => {
      const meta = DAPS_FIELDS[key];
      if (meta.type === "predictors") {
        dapsDraft.predictors = [...form.querySelectorAll("[data-predictor-input]")].map((el) => el.value);
      } else if (meta.type === "relationship") {
        const checked = form.querySelector('input[name="relationshipType"]:checked');
        dapsDraft.relationshipType = checked ? checked.value : "";
      } else {
        const el = form.querySelector(`[data-daps-input="${key}"]`);
        if (el) dapsDraft.fields[key] = el.value;
      }
    });
  }

  function saveDapsDraft(options) {
    options = options || {};
    collectDapsFormFromDOM();
    if (options.requireProjectName && !dapsDraft.projectName.trim()) {
      const input = bodyEl.querySelector("#dapsProjectName");
      input?.classList.add("is-invalid");
      input?.focus();
      setDapsSaveHint("Enter a project name to save this draft.", true);
      return false;
    }
    bodyEl.querySelector("#dapsProjectName")?.classList.remove("is-invalid");
    dapsDraft.updatedAt = new Date().toISOString();
    const key = dapsStorageKey(dapsDraft.projectName);
    try {
      localStorage.setItem(key, JSON.stringify(dapsDraft));
      if (key !== DAPS_DEFAULT_KEY) {
        localStorage.setItem(DAPS_DEFAULT_KEY, JSON.stringify(dapsDraft));
      }
    } catch (err) {
      setDapsSaveHint("Could not save — storage may be full.", true);
      return false;
    }
    updateDapsBlockIndicators();
    const hint = options.manual
      ? `Saved to ${key}${dapsDraft.projectName.trim() ? ` (${dapsDraft.projectName.trim()})` : ""}.`
      : "Draft saved automatically.";
    setDapsSaveHint(hint, false);
    return true;
  }

  function scheduleDapsAutoSave() {
    clearTimeout(dapsSaveTimer);
    dapsSaveTimer = setTimeout(() => saveDapsDraft({ manual: false }), 600);
  }

  function setDapsSaveHint(message, isError) {
    const hint = bodyEl.querySelector("#dapsSaveHint");
    if (hint) {
      hint.textContent = message;
      hint.style.color = isError ? "#b91c1c" : "";
    }
  }

  function clearDapsDraft() {
    if (!window.confirm("Clear the DAPS intake draft from this browser?")) return;
    dapsDraft = createEmptyDapsDraft();
    try {
      localStorage.removeItem(DAPS_DEFAULT_KEY);
    } catch (_) { /* ignore */ }
    updateDapsBlockIndicators();
    const view = stack[stack.length - 1];
    if (view?.type === "daps" && view.mode !== "view") {
      renderDaps(view);
    }
  }

  function buildDapsExportPack() {
    collectDapsFormFromDOM();
    return {
      schema: "daps-intake-pack-v1",
      projectName: dapsDraft.projectName.trim() || null,
      exportedAt: new Date().toISOString(),
      source: "ml-lifecycle-e2e-poster",
      updatedAt: dapsDraft.updatedAt,
      businessValue: {
        organizationKpi: dapsDraft.fields.organizationKpi || "",
        operationalKpis: dapsDraft.fields.operationalKpis || "",
        projectKpi: dapsDraft.fields.projectKpi || ""
      },
      decisionFramework: {
        decisionsActions: dapsDraft.fields.decisionsActions || "",
        decisionAgent: dapsDraft.fields.decisionAgent || "",
        decisionTiming: dapsDraft.fields.decisionTiming || "",
        unitOfAnalysis: dapsDraft.fields.unitOfAnalysis || "",
        interventionScope: dapsDraft.fields.interventionScope || ""
      },
      dataAnalyticProblem: {
        targetVariables: dapsDraft.fields.targetVariables || "",
        predictors: (dapsDraft.predictors || []).filter((p) => String(p).trim()),
        relationshipType: dapsDraft.relationshipType || ""
      }
    };
  }

  function exportDapsJson() {
    if (!saveDapsDraft({ manual: true, requireProjectName: true })) return;
    const pack = buildDapsExportPack();
    const slug = slugifyProjectName(dapsDraft.projectName);
    const blob = new Blob([JSON.stringify(pack, null, 2)], { type: "application/json" });
    const url = URL.createObjectURL(blob);
    const a = document.createElement("a");
    a.href = url;
    a.download = `daps-intake-${slug}.json`;
    a.click();
    URL.revokeObjectURL(url);
    setDapsSaveHint(`Exported ${a.download}.`, false);
  }

  function escapeHtml(str) {
    return String(str)
      .replace(/&/g, "&amp;")
      .replace(/</g, "&lt;")
      .replace(/>/g, "&gt;")
      .replace(/"/g, "&quot;");
  }

  function renderDapsFieldGroup(key, focusField) {
    const meta = DAPS_FIELDS[key];
    if (!meta) return "";
    const focusClass = focusField === key ? " daps-form-group--focus" : "";
    if (meta.type === "predictors") {
      const rows = (dapsDraft.predictors || ["", "", ""]).map((val, idx) => `
        <div class="daps-predictor-row" data-predictor-row="${idx}">
          <input type="text" class="daps-form-input" data-predictor-input data-predictor-index="${idx}" placeholder="${escapeHtml(meta.placeholder)} (X${idx + 1})" value="${escapeHtml(val)}" />
          <button type="button" class="daps-predictor-remove" data-predictor-remove="${idx}" aria-label="Remove predictor ${idx + 1}" title="Remove">×</button>
        </div>`).join("");
      return `
        <div class="daps-form-group${focusClass}" id="daps-field-${key}" data-daps-field-group="${key}">
          <label class="daps-form-label">${meta.label}</label>
          <p class="daps-form-hint">${meta.placeholder}</p>
          <div id="dapsPredictorList">${rows}</div>
          <button type="button" class="daps-btn" id="dapsAddPredictor">+ Add predictor</button>
        </div>`;
    }
    if (meta.type === "relationship") {
      const options = DAPS_RELATIONSHIP_OPTIONS.map((opt) => `
        <label class="daps-rel-option">
          <input type="radio" name="relationshipType" value="${opt.value}" ${dapsDraft.relationshipType === opt.value ? "checked" : ""} />
          ${opt.label}
        </label>`).join("");
      return `
        <div class="daps-form-group${focusClass}" id="daps-field-${key}" data-daps-field-group="${key}">
          <span class="daps-form-label">${meta.label}</span>
          <p class="daps-form-hint">${meta.placeholder}</p>
          <div class="daps-rel-options">${options}</div>
        </div>`;
    }
    const value = escapeHtml(dapsDraft.fields[key] || "");
    const inputTag = meta.multiline
      ? `<textarea class="daps-form-textarea" data-daps-input="${key}" placeholder="${escapeHtml(meta.placeholder)}" rows="3">${value}</textarea>`
      : `<input type="text" class="daps-form-input" data-daps-input="${key}" placeholder="${escapeHtml(meta.placeholder)}" value="${value}" />`;
    return `
      <div class="daps-form-group${focusClass}" id="daps-field-${key}" data-daps-field-group="${key}">
        <label class="daps-form-label" for="daps-input-${key}">${meta.label}</label>
        <p class="daps-form-hint">${meta.placeholder}</p>
        ${inputTag.replace(`data-daps-input="${key}"`, `id="daps-input-${key}" data-daps-input="${key}"`)}
      </div>`;
  }

  function renderDapsFormHTML(focusField) {
    const tiersHtml = DAPS_TIERS.map((tier) => {
      const fields = Object.entries(DAPS_FIELDS).filter(([, meta]) => meta.tier === tier.key).map(([key]) => renderDapsFieldGroup(key, focusField)).join("");
      return `
        <section class="daps-form-tier ${tier.tierClass}">
          <div class="daps-form-tier-head">${tier.title}</div>
          <div class="daps-form-tier-body">${fields}</div>
        </section>`;
    }).join("");

    return `
      <form class="daps-intake-form" id="dapsIntakeForm" novalidate>
        <div class="daps-form-toolbar">
          <label for="dapsProjectName">Project name</label>
          <input type="text" class="daps-form-project" id="dapsProjectName" placeholder="e.g. churn-prediction-q3" value="${escapeHtml(dapsDraft.projectName || "")}" required />
          <div class="daps-form-actions">
            <button type="button" class="daps-btn daps-btn--primary" id="dapsSaveBtn">Save draft</button>
            <button type="button" class="daps-btn" id="dapsExportBtn">Export JSON</button>
            <button type="button" class="daps-btn daps-btn--danger" id="dapsClearBtn">Clear draft</button>
          </div>
          <p class="daps-save-hint" id="dapsSaveHint">Drafts persist in this browser via localStorage.</p>
        </div>
        ${tiersHtml}
      </form>`;
  }

  function bindDapsFormEvents(focusField) {
    const form = bodyEl.querySelector(".daps-intake-form");
    if (!form) return;

    form.querySelector("#dapsSaveBtn")?.addEventListener("click", () => saveDapsDraft({ manual: true, requireProjectName: true }));
    form.querySelector("#dapsExportBtn")?.addEventListener("click", exportDapsJson);
    form.querySelector("#dapsClearBtn")?.addEventListener("click", clearDapsDraft);

    form.querySelectorAll("[data-daps-input], [data-predictor-input], #dapsProjectName").forEach((el) => {
      el.addEventListener("input", scheduleDapsAutoSave);
    });
    form.querySelectorAll('input[name="relationshipType"]').forEach((el) => {
      el.addEventListener("change", scheduleDapsAutoSave);
    });

    form.querySelector("#dapsAddPredictor")?.addEventListener("click", () => {
      collectDapsFormFromDOM();
      dapsDraft.predictors.push("");
      const view = stack[stack.length - 1];
      renderDaps({ ...view, mode: "form" });
    });

    form.querySelectorAll("[data-predictor-remove]").forEach((btn) => {
      btn.addEventListener("click", () => {
        collectDapsFormFromDOM();
        const idx = +btn.dataset.predictorRemove;
        if (dapsDraft.predictors.length <= 1) {
          dapsDraft.predictors = [""];
        } else {
          dapsDraft.predictors.splice(idx, 1);
        }
        const view = stack[stack.length - 1];
        renderDaps({ ...view, mode: "form" });
      });
    });

    if (focusField) {
      const target = bodyEl.querySelector(`#daps-field-${focusField}`);
      if (target) {
        requestAnimationFrame(() => {
          target.scrollIntoView({ behavior: "smooth", block: "start" });
          target.querySelector("input, textarea, select")?.focus();
        });
      }
    }
  }

  function setDapsTabs(activeMode, view) {
    if (!tabsEl) return;
    tabsEl.hidden = false;
    tabsEl.innerHTML = `
      <button type="button" class="panel-tab${activeMode === "form" ? " panel-tab--active" : ""}" data-daps-tab="form" role="tab" aria-selected="${activeMode === "form"}">Fill in</button>
      <button type="button" class="panel-tab panel-tab--view${activeMode === "view" ? " panel-tab--active" : ""}" data-daps-tab="view" role="tab" aria-selected="${activeMode === "view"}">View</button>`;
    tabsEl.querySelectorAll("[data-daps-tab]").forEach((btn) => {
      btn.addEventListener("click", () => {
        const newMode = btn.dataset.dapsTab;
        const current = stack[stack.length - 1];
        if (current?.type === "daps" && current.mode !== newMode) {
          current.mode = newMode;
          renderDaps(current);
        }
      });
    });
  }

  function renderDaps(view) {
    const fieldKey = view.field;
    const fieldMeta = fieldKey ? DAPS_FIELDS[fieldKey] : null;
    const phase = view.phase ?? fieldMeta?.phase ?? 1;
    const mode = view.mode || "form";

    titleEl.textContent = fieldMeta ? `DAPS · ${fieldMeta.label}` : "DAPS intake workbook";
    subtitleEl.textContent = "de Mast & Lokkerbol (2024) — templatized intake blocks";
    badgesEl.innerHTML = [
      `<span class="detail-badge">Phase ${phase}</span>`,
      `<span class="detail-badge">DAPS</span>`,
      `<span class="detail-badge detail-badge--gov">Intake</span>`
    ].join("");
    setDapsTabs(mode, view);

    if (mode === "view") {
      subtitleEl.textContent = `Phase ${phase} matrix detail · ${PHASES[phase]?.name || ""}`;
      bodyEl.innerHTML = getPhaseBodyHTML(phase);
      return;
    }

    bodyEl.innerHTML = renderDapsFormHTML(fieldKey);
    bindDapsFormEvents(fieldKey);
  }

  function renderGap() {
    hideTabs();
    titleEl.textContent = "FTI build → delivery gap";
    subtitleEl.textContent = "Between phase 8 (I artifact) and phase 9 (production delivery)";
    badgesEl.innerHTML = "";
    bodyEl.innerHTML = [
      renderSection("Handover", [
        "FTI build complete: inference pipeline artifact, application card (inference), gateway config draft",
        "Delivery lane chooses mode: batch (trigger FTI pipeline, AZML batch endpoint, schedule) vs realtime (API, model embedded, online feature store, gateway enforce)",
        "DS experiments → MLE production pipelines still applies within training→inference handoff (7→8)",
        "Research notebooks → reproducible inference pipeline code before production trigger"
      ]),
      `<section class="detail-section"><h3>Related phases</h3><ul>
        <li><button type="button" class="detail-back" data-jump="8" style="font:inherit;cursor:pointer;background:none;border:none;color:#2563eb;padding:0">Phase 8 — Inference (I) · FTI build</button></li>
        <li><button type="button" class="detail-back" data-jump="9" style="font:inherit;cursor:pointer;background:none;border:none;color:#2563eb;padding:0">Phase 9 — Production deploy · delivery modes</button></li>
      </ul></section>`
    ].join("");
    bodyEl.querySelectorAll("[data-jump]").forEach((btn) => {
      btn.addEventListener("click", () => pushView({ type: "phase", id: +btn.dataset.jump, label: `Phase ${btn.dataset.jump}` }));
    });
  }

  function applyView(view) {
    if (view.type !== "pillar") setActivePillar(null);
    switch (view.type) {
      case "phase": renderPhase(view.id); break;
      case "daps": renderDaps(view); break;
      case "monitor": renderMonitor(view.id); break;
      case "gov": renderGov(view.id); break;
      case "pillar": renderPillar(view.id); break;
      case "infra": renderInfra(view.id); break;
      case "gap": renderGap(); break;
      default: break;
    }
    breadcrumb.textContent = ["Poster", ...stack.map((s) => s.label)].join(" › ");
    backBtn.disabled = stack.length <= 1;
  }

  function pushView(view) {
    stack.push(view);
    applyView(view);
    openPanel();
  }

  function popView() {
    if (stack.length <= 1) return;
    stack.pop();
    applyView(stack[stack.length - 1]);
  }

  function openPanel() {
    isOpen = true;
    document.body.classList.add("panel-open");
    backdrop.classList.add("is-open");
    panel.classList.add("is-open");
    backdrop.setAttribute("aria-hidden", "false");
    panel.setAttribute("aria-hidden", "false");
  }

  function closePanel() {
    isOpen = false;
    document.body.classList.remove("panel-open");
    backdrop.classList.remove("is-open");
    panel.classList.remove("is-open");
    backdrop.setAttribute("aria-hidden", "true");
    panel.setAttribute("aria-hidden", "true");
    stack.length = 0;
    setActivePillar(null);
  }

  function openPhase(n, label) {
    pushView({ type: "phase", id: n, label: label || `Phase ${n}` });
  }

  document.querySelectorAll("[data-phase]").forEach((el) => {
    bindInteractive(el, () => openPhase(+el.dataset.phase, `Phase ${el.dataset.phase}`));
  });

  document.querySelectorAll("[data-daps]").forEach((el) => {
    bindInteractive(el, () => {
      const field = el.dataset.dapsField;
      const phase = +el.dataset.daps;
      const label = el.dataset.dapsLabel || "DAPS";
      pushView({
        type: "daps",
        field,
        phase,
        mode: "form",
        label: `DAPS · ${label}`
      });
    });
  });

  updateDapsBlockIndicators();
  hydratePosterRoles();
  initSwimlanes();

  document.querySelectorAll("[data-monitor]").forEach((el) => {
    bindInteractive(el, () => pushView({ type: "monitor", id: el.dataset.monitor, label: MONITORING[el.dataset.monitor]?.title || "Monitoring" }));
  });

  document.querySelectorAll("[data-gov]").forEach((el) => {
    bindInteractive(el, () => pushView({ type: "gov", id: el.dataset.gov, label: "Governance" }));
  });

  document.querySelectorAll("[data-pillar-detail]").forEach((el) => {
    bindInteractive(el, () => pushView({ type: "pillar", id: el.dataset.pillarDetail, label: PILLARS[el.dataset.pillarDetail]?.title || "Pillar" }));
  });

  document.querySelectorAll("[data-infra]").forEach((el) => {
    bindInteractive(el, () => pushView({ type: "infra", id: el.dataset.infra, label: INFRA[el.dataset.infra]?.title || "Pipeline" }));
  });

  const gapEl = document.querySelector("[data-gap]");
  if (gapEl) {
    bindInteractive(gapEl, () => pushView({ type: "gap", id: "handover", label: "FTI build → delivery gap" }));
  }

  backBtn.addEventListener("click", popView);
  closeBtn.addEventListener("click", closePanel);
  backdrop.addEventListener("click", closePanel);
  document.addEventListener("keydown", (e) => {
    if (e.key !== "Escape") return;
    if (seqOverlay?.classList.contains("is-open")) {
      closeSequenceFlow();
      return;
    }
    if (isOpen) closePanel();
    else if (focusedLaneKey || laneKeyboardKey) clearLaneFocus();
  });

  const SEQ_MAT_CLASS = {
    0: "intake", 1: "intake", 2: "intake",
    3: "poc", 4: "poc", 5: "poc",
    6: "proto",
    7: "pilot", 8: "pilot",
    9: "prd",
    10: "prod",
    11: "op",
    12: "ret"
  };

  const SEQ_SHORT = {
    0: "Envision", 1: "DAPS", 2: "KPI/SLA", 3: "Feasibility", 4: "Architecture",
    5: "EDA", 6: "Feature F", 7: "Training T", 8: "Inference I", 9: "PRD deploy",
    10: "Integrated", 11: "Monitor", 12: "Retire"
  };

  const seqOverlay = document.getElementById("seqOverlay");
  const seqOpenBtn = document.getElementById("openSequenceBtn");
  const seqCloseBtn = document.getElementById("seqClose");
  const seqSpine = document.getElementById("seqSpine");

  function closeSequenceFlow() {
    if (!seqOverlay) return;
    seqOverlay.classList.remove("is-open");
    seqOverlay.setAttribute("aria-hidden", "true");
    if (!isOpen) document.body.classList.remove("panel-open");
  }

  function openSequenceFlow() {
    if (!seqOverlay) return;
    seqOverlay.classList.add("is-open");
    seqOverlay.setAttribute("aria-hidden", "false");
    document.body.classList.add("panel-open");
    seqCloseBtn?.focus();
  }

  function initSequenceFlow() {
    if (!seqSpine) return;
    seqSpine.innerHTML = "";
    for (let n = 0; n <= 12; n++) {
      if (n > 0) {
        const arr = document.createElement("span");
        arr.className = "seq-arrow";
        arr.textContent = "→";
        arr.setAttribute("aria-hidden", "true");
        seqSpine.appendChild(arr);
      }
      const btn = document.createElement("button");
      btn.type = "button";
      btn.className = `seq-phase seq-phase--${SEQ_MAT_CLASS[n]}`;
      btn.title = PHASES[n]?.name ? `Phase ${n}: ${PHASES[n].name}` : `Phase ${n}`;
      btn.innerHTML =
        `<span class="seq-phase-node">${n}</span>` +
        `<span class="seq-phase-label">${SEQ_SHORT[n] || PHASES[n]?.name || ""}</span>`;
      btn.addEventListener("click", () => {
        closeSequenceFlow();
        openPhase(n, `Phase ${n}`);
      });
      seqSpine.appendChild(btn);
    }
    seqOpenBtn?.addEventListener("click", openSequenceFlow);
    seqCloseBtn?.addEventListener("click", closeSequenceFlow);
    seqOverlay?.addEventListener("click", (e) => {
      if (e.target === seqOverlay) closeSequenceFlow();
    });
  }

  initSequenceFlow();

  const POSTER_HELP_KEY = "ml-lifecycle-poster-help-dismissed";
  const posterHelpBanner = document.getElementById("posterHelpBanner");
  const posterHelpFab = document.getElementById("posterHelpFab");
  const posterHelpDismiss = document.getElementById("posterHelpDismiss");
  const posterHelpToggleHero = document.getElementById("posterHelpToggleHero");

  function isPosterHelpVisible() {
    return posterHelpBanner && !posterHelpBanner.hidden;
  }

  function setPosterHelpVisible(show) {
    if (!posterHelpBanner) return;
    posterHelpBanner.hidden = !show;
    const expanded = Boolean(show);
    posterHelpFab?.setAttribute("aria-expanded", expanded ? "true" : "false");
    posterHelpToggleHero?.setAttribute("aria-expanded", expanded ? "true" : "false");
  }

  function togglePosterHelp() {
    setPosterHelpVisible(!isPosterHelpVisible());
  }

  function dismissPosterHelp() {
    try {
      localStorage.setItem(POSTER_HELP_KEY, "1");
    } catch (_) { /* ignore */ }
    setPosterHelpVisible(false);
  }

  posterHelpFab?.addEventListener("click", togglePosterHelp);
  posterHelpToggleHero?.addEventListener("click", togglePosterHelp);
  posterHelpDismiss?.addEventListener("click", dismissPosterHelp);

  try {
    if (localStorage.getItem(POSTER_HELP_KEY) !== "1") setPosterHelpVisible(true);
  } catch (_) {
    setPosterHelpVisible(true);
  }
})();
  </script>
</body>
</html>
